checkpoint_critic.pth (torch_old, 89624 bytes, 9 tensors)

fc1.weight f4 [128, 33]
0	0x3d7c282d	0.061561752
1	0xbd9a5031	-0.075348265
2	0x3d41a18f	0.047273215
3	0xbc30ff25	-0.010803019
4	0xbd1374cf	-0.03600007
5	0xbdc78197	-0.09741514
6	0x3ce07a27	0.027401997
7	0x3b8fb8f0	0.00438606
8	0xbd8eccec	-0.069726795
9	0x3dfb67d3	0.12275662
10	0x3d9398e9	0.072069
11	0xbb5b97e1	-0.0033507275
12	0xbd236547	-0.039891507
13	0x3d019da5	0.031644482
14	0x3dc308e0	0.09523177
15	0xbc30f64f	-0.010800912
16	0x3d44ff6a	0.048095144
17	0x3d8efc7e	0.06981753
18	0x3c9cec68	0.019155696
19	0x3c35e184	0.01110113
20	0xbd0cabc6	-0.034343503
21	0x3cdbdd58	0.026838943
22	0xbe0d75dd	-0.13814493
23	0xb7a70bfa	-1.9913528e-05
24	0x3ce25c90	0.027632028
25	0xbda40b0b	-0.08009919
26	0xbd25316f	-0.040330347
27	0xbd89da97	-0.06731146
28	0xbcdde31a	-0.02708583
29	0xbd9e9f8d	-0.07745276
30	0x3d8501e3	0.064945005
31	0xbd857ec0	-0.06518316
32	0x3cf86694	0.03032235
33	0xbcd90c88	-0.026495233
34	0x3b92c4f9	0.0044790474
35	0xbc8144bf	-0.015779851
36	0xbd26ce83	-0.04072429
37	0x3d2738c8	0.040825635
38	0xbbf042c7	-0.007332179
39	0xbda36a26	-0.079792306
40	0xbd1779a5	-0.036981244
41	0xbb3ba924	-0.0028634751
42	0x3d74468c	0.05963759
43	0x3d378b49	0.044810567
44	0xbc657c75	-0.014006724
45	0x3b060765	0.0020451185
46	0x3d3667de	0.04453265
47	0x3bfd17c4	0.0077237803
48	0xbc593429	-0.013257065
49	0xbd5f0def	-0.054456647
50	0xbca975a3	-0.020685976
51	0xbd1d7355	-0.038440067
52	0xbc1b3f39	-0.009475523
53	0x3b9af78a	0.004729216
54	0xbb831850	-0.004000701
55	0xbd6dc9f9	-0.058053944
56	0x3d6bc271	0.05755848
57	0x3d56fd04	0.05248739
58	0x3cd09c5a	0.02546518
59	0x3da33752	0.07969536
60	0x3e2d2036	0.16906819
61	0x3c1e3555	0.00965627
62	0x3da3328b	0.07968625
63	0xbdd1bc8e	-0.10241042
64	0x3d555982	0.052087314
65	0xbeb91aa0	-0.36153126
66	0xbe131bd2	-0.14366081
67	0xbd4c3828	-0.049858242
68	0x3d845243	0.06461003
69	0x3ce60209	0.028077142
70	0xba2ac757	-0.00065146893
71	0x3d2bf8d1	0.041985337
72	0xbc27cabc	-0.010241207
73	0x3d1515ed	0.036397863
74	0x3caa6e57	0.020804567
75	0xbd6ba787	-0.057532813
76	0x3ad10d82	0.001594946
77	0x3cdf29dc	0.02724164
78	0x3d77a841	0.060463194
79	0xbd417f1d	-0.047240365
80	0xbd6c48e8	-0.057686716
81	0x3bbb51b9	0.005716529
82	0x3d17a389	0.037021194
83	0xbbe9f7c7	-0.007140133
84	0x3d088ae4	0.03333558
85	0xbcbd88ba	-0.023136485
86	0x3c026b55	0.00796016
87	0xbc9739f1	-0.018460246
88	0x3c52a2c7	0.012856192
89	0x3d3afd7d	0.0456519
90	0x3c6f12b9	0.014591866
91	0x3cb4606a	0.02201863
92	0x3de442d5	0.1114556
93	0x3a8d6824	0.0010788483
94	0xbdba19c4	-0.09086946
95	0xbd8a9845	-0.06767324
96	0x3b362ee2	0.002779894
97	0xbd1fc75a	-0.039008476
98	0x3e3733b3	0.17890815
99	0x3e0d25cf	0.13783954
100	0x3bf2e27b	0.0074122525
101	0xbc7b7f7e	-0.015350221
102	0x3d74435c	0.05963455
103	0xbd15790a	-0.036492385
104	0xbcb82c4f	-0.022482065
105	0xbd2e423a	-0.042543627
106	0x3d886a58	0.066609085
107	0xbd1d67b6	-0.038428985
108	0x3c7d5e70	0.01546441
109	0x3c4ac0bd	0.012375054
110	0x3caa561f	0.020793019
111	0xbce769ca	-0.028248686
112	0xbc0b5016	-0.008502981
113	0xbd5d7b12	-0.054072447
114	0xbd4ed546	-0.050496362
115	0x3cf0921a	0.029366542
116	0x3d1791b5	0.03700419
117	0xbd478f03	-0.04872037
118	0x3d7143e3	0.058902632
119	0x3b4d1bee	0.0031297165
120	0xbba3a98f	-0.004994578
121	0x3b0671cd	0.0020514608
122	0x3c333f8b	0.010940443
123	0xbd771af5	-0.060328443
124	0xbd1207e4	-0.035652056
125	0xbd4d4f43	-0.050124418
126	0xbd9625d2	-0.073314324
127	0x3d3c5ce7	0.045987036
128	0x3c6f7c80	0.014617085
129	0x3e12862b	0.14308994
130	0x3d518422	0.051151402
131	0x3dc15678	0.09440321
132	0x3d525f32	0.051360317
133	0xbc664250	-0.014053896
134	0x3d883835	0.06651346
135	0x3dc9c5d9	0.098521896
136	0x3e274973	0.16336612
137	0x3d8afd17	0.06786554
138	0xbd2ad0ce	-0.041703038
139	0xbc02092f	-0.00793676
140	0xbd60c0c3	-0.054871332
141	0x3d0199d1	0.03164083
142	0x3bdd516d	0.0067540915
143	0x3d84f7be	0.064925656
144	0x3da67cc1	0.08129264
145	0x3d3e5bc2	0.046474226
146	0x3daa003f	0.08300828
147	0x3cfdd0b4	0.030983306
148	0x3c086ba4	0.008326445
149	0x3c7b2138	0.015327744
150	0xbc7d5690	-0.015462533
151	0x3adf41fe	0.0017033217
152	0x3c29149a	0.010319853
153	0x3c3bf430	0.011471793
154	0x3bb52d3f	0.0055290754
155	0xbcb42291	-0.021989139
156	0x3c45f7dc	0.01208302
157	0x3d8dc045	0.06921438
158	0xbdd9be7c	-0.10632035
159	0x3de6a9d3	0.1126286
160	0xba8fceca	-0.0010971662
161	0x3c32f4f8	0.010922663
162	0xbce5ac95	-0.028036395
163	0xbd09ddbe	-0.033658735
164	0xbe1c796a	-0.15280691
165	0x3e102306	0.1407586
166	0xbd010006	-0.031494163
167	0x3d09408f	0.033508833
168	0x3cfdaa8a	0.030965108
169	0xbe28a17f	-0.16467856
170	0x3d360d35	0.04444619
171	0x3dc46a48	0.09590584
172	0xbc4a660a	-0.01235343
173	0xbcde7544	-0.027155526
174	0x3d218e3a	0.03944228
175	0xbcf20701	-0.029544355
176	0x3c919aaf	0.017773954
177	0xbd0e08e5	-0.03467645
178	0xbde18341	-0.11011363
179	0xbc0217fa	-0.007940287
180	0xbc9d21d2	-0.019181166
181	0x39b9a379	0.00035407746
182	0x3b83c3e0	0.004021153
183	0xbd8b3f75	-0.06799213
184	0xbc90caa5	-0.017674753
185	0x3d445b61	0.04793871
186	0x3c79a030	0.015235946
187	0xbc18a3f7	-0.009316436
188	0xbdd995b2	-0.10624255
189	0xbcaf09a9	-0.021366911
190	0xbd1a2430	-0.037632167
191	0xbb159789	-0.0022825918
192	0xbd002452	-0.031284638
193	0xbcb6c971	-0.022312852
194	0x3cd258a8	0.02567704
195	0x3d994cc8	0.07485348
196	0xbd6e49d6	-0.058175884
197	0xbe2be925	-0.16788156
198	0x3d8488e4	0.06471422
199	0x3cfefaee	0.031125512
200	0x3d9f5bfc	0.077812165
201	0xbcfc9aa4	-0.030835457
202	0x3d29e457	0.041477527
203	0x3d68f5f1	0.056875173
204	0xbcac2be5	-0.021017024
205	0xbe1ef5a6	-0.15523395
206	0x3d8c2338	0.06842655
207	0xbd687df7	-0.056760754
208	0x3c34196b	0.010992388
209	0x3e03d955	0.12875874
210	0x3c991248	0.018685475
211	0x3d129d9b	0.035794836
212	0xbd29a8a9	-0.041420612
213	0x3caf5c70	0.021406382
214	0x3d42f68b	0.047598403
215	0xbdc36527	-0.09540778
216	0xbdd4f27d	-0.103978135
217	0x3d9b8677	0.075940065
218	0xbc70dc11	-0.014700905
219	0xbd389856	-0.045067154
220	0x3e285861	0.16439964
221	0x3d96cde2	0.07363488
222	0xb9f5f179	-0.00046909953
223	0x3d073606	0.033010505
224	0xbbbfda1f	-0.0058548595
225	0xbcf7ef54	-0.030265488
226	0xbc172aad	-0.009226483
227	0x3dae56e1	0.085126646
228	0xbdabedd6	-0.08394973
229	0xbd6df668	-0.05809632
230	0x3c43703d	0.011928615
231	0x3d3cca07	0.046091106
232	0xbdbbf545	-0.09177641
233	0x3deeae6c	0.11654362
234	0x3d6da61d	0.058019746
235	0x3d0b4594	0.0340019
236	0xbc2607c3	-0.0101336865
237	0x3be2b24f	0.0069182287
238	0xbc6535f3	-0.013989913
239	0xbd0281d5	-0.0318621
240	0x3cb9bc8c	0.022672914
241	0x3bcc70ef	0.0062390487
242	0xbcecb78d	-0.028896118
243	0x3a8e42f7	0.0010853697
244	0xbda3c584	-0.079966575
245	0x3d9dc135	0.07702867
246	0xbdbc1bee	-0.09185015
247	0xbc27aca5	-0.010234033
248	0xbd473dc3	-0.048642885
249	0x3b9def68	0.004819799
250	0x3d478fd2	0.048721142
251	0xbd085468	-0.03328362
252	0xbc5a6de3	-0.013331863
253	0x3ab4191f	0.0013740397
254	0xbd9cdff8	-0.07659906
255	0x3d0b4fd0	0.034011662

fc1.bias f4 [128]
0	0x3d7146b5	0.058905322
1	0x3d5215cc	0.05129032
2	0x3e385c74	0.18004018
3	0x3e51946d	0.20466776
4	0xbe1ceec6	-0.1532546
5	0x3db37133	0.087618254
6	0xbdf606dd	-0.12013028
7	0xbd436520	-0.047703862
8	0x3e0d8523	0.13820319
9	0x3e025c1a	0.12730446
10	0xbde78e86	-0.11306481
11	0xbdaf1ae7	-0.08550053
12	0xbe38075b	-0.17971556
13	0xbd26ab46	-0.040690683
14	0x3d5e01a7	0.054200795
15	0xbd6de59a	-0.058080293
16	0xbdd785fd	-0.10523603
17	0x3d784fb0	0.06062287
18	0x3d99603a	0.07489057
19	0x3e2be1fb	0.16785423
20	0x3d8a11c7	0.06741672
21	0xbd13a915	-0.03604992
22	0xbe0dc2ea	-0.13843885
23	0x3d50035f	0.050784465
24	0x3d8d2e12	0.06893553
25	0x3e1a3188	0.15057957
26	0x3d4a9039	0.049453948
27	0xbe0b1bc7	-0.13584815
28	0xbe2565be	-0.16152093
29	0xbe21dec7	-0.15807639
30	0xbdd1953b	-0.102335416
31	0xbdf7fc64	-0.121086866
32	0x3e24f985	0.16110809
33	0xbd36c66a	-0.044622816
34	0x3ad82ecf	0.0016493442
35	0x3b9401dc	0.004516823
36	0xbe001962	-0.12509683
37	0xbe35664a	-0.17714801
38	0xbcc1ab79	-0.023641335
39	0x3dc8f2f8	0.098119676
40	0xbd3f7bc8	-0.046748906
41	0xbd8ffe5d	-0.07030938
42	0xbe3efc6d	-0.1865098
43	0x3c788d6c	0.015170436
44	0x3d31f3a6	0.043445252
45	0x3d59e102	0.0531931
46	0xbdc52098	-0.096253574
47	0x3d9de846	0.07710318
48	0xbdd29f65	-0.10284308
49	0x3c284c23	0.010272059
50	0xbe2bb2da	-0.16767445
51	0xbdb74c87	-0.08950143
52	0xbe524f37	-0.2053803
53	0xbde7fa90	-0.11327088
54	0x3d0dd63b	0.034628134
55	0xbcaf9cff	-0.021437166
56	0xbdac5546	-0.08414702
57	0x3da676a8	0.08128101
58	0xbd995a6f	-0.07487952
59	0x38c3a627	9.329273e-05
60	0x3d4c5f72	0.04989571
61	0xbe106824	-0.14102226
62	0x3daa2406	0.08307652
63	0x3d6c5dd4	0.05770667
64	0xbe06d18b	-0.13165872
65	0x3ce606dc	0.028079443
66	0x3dd0eaee	0.10201059
67	0xbc8ad623	-0.016947811
68	0xbc8e5a5f	-0.017377077
69	0xbd92d528	-0.071695626
70	0x3bf76dab	0.0075509152
71	0xbd0f4896	-0.034981333
72	0xbe0939cb	-0.13400953
73	0x3db316da	0.08744593
74	0xbd135beb	-0.03597633
75	0x3b953e2f	0.004554532
76	0xbbc6e7e1	-0.0060701226
77	0xbe035310	-0.12824655
78	0x3cf49e60	0.029860675
79	0x3d07b7ee	0.033134393
80	0xbc95b1c9	-0.018273251
81	0xbdb97d3f	-0.09057092
82	0x3d0eb665	0.034841914
83	0xbd9c10eb	-0.07620414
84	0x3e0a682c	0.13516301
85	0xbe4d6e94	-0.20061713
86	0xbda6d9b9	-0.08146996
87	0x3e072949	0.13199343
88	0xbdf99229	-0.12186081
89	0xbce9d00a	-0.028541584
90	0x3d859f10	0.065244794
91	0xbc9a6eae	-0.018851604
92	0x3b11cd4b	0.0022247608
93	0x3d7d7220	0.061876416
94	0xbdea23fc	-0.11432645
95	0x3e3f06a0	0.18654871
96	0xbcc801d8	-0.024414942
97	0x3dd98f62	0.10623051
98	0xbab7c3da	-0.001402016
99	0xbd0fc37e	-0.035098545
100	0x3c777d44	0.015105549
101	0x3cb167e5	0.021655986
102	0x3e204ef5	0.1565512
103	0x3c069109	0.00821329
104	0xbd287baa	-0.04113356
105	0xbde1e3d7	-0.11029785
106	0x3deabd0c	0.11461839
107	0x3dce64d8	0.10077828
108	0xbd896516	-0.06708734
109	0x3d3efc0e	0.046627097
110	0x3d84b10d	0.06479082
111	0x3dd17dff	0.1022911
112	0xbdd70e41	-0.105007656
113	0x3dd0f009	0.10202033
114	0xbd8abcf5	-0.06774322
115	0xbe187666	-0.14888915
116	0x3cf7db05	0.030255804
117	0x3d2f8d10	0.042859137
118	0x3da9fbb5	0.082999624
119	0xbdefc1d6	-0.11706893
120	0xbd806d09	-0.06270797
121	0xbe065fbc	-0.13122457
122	0x3dcf890d	0.10133562
123	0xbe50af04	-0.20379263
124	0xbcfe3130	-0.031029314
125	0xbdbfc0aa	-0.0936292
126	0x3dc2ae30	0.0950588
127	0x3d86ea88	0.06587702

bn1.weight f4 [128]
0	0x3e8b9c14	0.27267516
1	0x3f1b78b6	0.60731065
2	0x3f75db40	0.96037674
3	0x3f0d277a	0.5513836
4	0x3ea712d3	0.3263155
5	0x3f0b41e2	0.54397404
6	0x3dfad8b5	0.12248365
7	0x3e892d96	0.26792592
8	0x3eee937a	0.4659689
9	0x3e487bb8	0.19578445
10	0x3f712804	0.94201684
11	0x3f2ddd6e	0.67916
12	0x3f5c993f	0.86171335
13	0x3ef674b0	0.481359
14	0x3eef0139	0.4668062
15	0x3f1a5d4c	0.6029861
16	0x3e9f539d	0.3111848
17	0x3eb323fb	0.34988388
18	0x3de4e079	0.11175627
19	0x3f635515	0.888017
20	0x3f64036c	0.8906772
21	0x3e193b32	0.14963987
22	0x3ec35cf9	0.3815687
23	0x3e32c38e	0.1745741
24	0x3ecc8ef9	0.3995283
25	0x3f57e10a	0.8432776
26	0x3f2234af	0.6336164
27	0x3eec7d3d	0.461893
28	0x3f317fdd	0.6933573
29	0x3f29d29b	0.66336983
30	0x3f478a28	0.77945185
31	0x3e6dd75c	0.23226684
32	0x3f204d3d	0.62617856
33	0x3e119f34	0.14220887
34	0x3e6de3f8	0.23231494
35	0x3eba4ce7	0.36386797
36	0x3ef68e6f	0.48155543
37	0x3df29308	0.1184445
38	0x3f1c1981	0.60976416
39	0x3f1d367f	0.6141128
40	0x3eb2171d	0.3478326
41	0x3f4afa1e	0.792879
42	0x3f65385b	0.89539117
43	0x3ecfaf0f	0.40563247
44	0x3e87cb82	0.26522452
45	0x3dba6494	0.09101215
46	0x3e624931	0.22098233
47	0x3eb3ef5c	0.35143554
48	0x3e9849a2	0.29743677
49	0x3eb05e5e	0.34446996
50	0x3f276ea8	0.65403223
51	0x3f5e06d2	0.86729157
52	0x3f4e4f9b	0.8059022
53	0x3f8a8acc	1.0823607
54	0x3eb0abcb	0.34506068
55	0x3ebb6c50	0.36606073
56	0x3f030d04	0.51191735
57	0x3df19052	0.11795105
58	0x3f3e5b27	0.7435784
59	0x3eeff3a3	0.46865568
60	0x3e041ac2	0.12900832
61	0x3e82c418	0.25540233
62	0x3e2e5490	0.17024446
63	0x3f1c3b87	0.6102833
64	0x3f4cfee3	0.80076426
65	0x3f492356	0.78569543
66	0x3ed86141	0.422617
67	0x3e86fbe3	0.2636405
68	0x3eac42ec	0.33644807
69	0x3eb8c362	0.36086565
70	0x3edb4100	0.4282303
71	0x3df5b44a	0.11997278
72	0x3f47323b	0.7781102
73	0x3dabfbd3	0.08397641
74	0x3e841938	0.2580049
75	0x3f5f88af	0.8731794
76	0x3e9f922c	0.31166208
77	0x3f20479e	0.6260928
78	0x3f3ba407	0.7329716
79	0x3f72a48d	0.94782335
80	0x3f31daab	0.69474286
81	0x3ec2342e	0.37930435
82	0x3f3ceaa2	0.7379552
83	0x3f1b74c6	0.6072506
84	0x3ebb6f7a	0.36608487
85	0x3effb201	0.49940494
86	0x3f1d8e58	0.61545324
87	0x3f5ba624	0.85800385
88	0x3f274970	0.6534643
89	0x3f3b1b34	0.73088384
90	0x3f13d2f4	0.57743764
91	0x3eff0724	0.49810135
92	0x3f344330	0.7041502
93	0x3f075bc4	0.528744
94	0x3e078096	0.13232645
95	0x3f0de7d0	0.5543184
96	0x3e76f193	0.24115591
97	0x3e805da8	0.25071454
98	0x3f2a6bfd	0.6657103
99	0x3f2aa038	0.66650724
100	0x3f2d3e35	0.67673045
101	0x3ee292d4	0.44252646
102	0x3f3d3e46	0.73923147
103	0x3f634081	0.887703
104	0x3f2d9984	0.6781237
105	0x3f26a87c	0.65100837
106	0x3dfbda35	0.12297479
107	0x3f477be7	0.77923435
108	0x3f01f451	0.5076342
109	0x3f33d1ea	0.7024218
110	0x3f567abb	0.8378102
111	0x3ece906b	0.40344557
112	0x3ee71268	0.4513123
113	0x3f72495f	0.94643205
114	0x3f66b645	0.9012187
115	0x3e449962	0.19199136
116	0x3f806f79	1.0034019
117	0x3f7656dd	0.9622629
118	0x3f07f8d2	0.53114045
119	0x3e2f65a4	0.17128617
120	0x3f1809ac	0.5938976
121	0x3ee90d76	0.45518082
122	0x3f654e4e	0.8957261
123	0x3da8664e	0.08222638
124	0x3f0edf3e	0.5580939
125	0x3f057cac	0.5214336
126	0x3f10e6af	0.56601995
127	0x3f36cd27	0.7140679

bn1.bias f4 [128]
0	0xbd308d99	-0.043103788
1	0xbdcd4d0e	-0.10024463
2	0xbcbb44f8	-0.022860035
3	0xbd2dd18a	-0.04243616
4	0x3d2ee4f8	0.04269883
5	0x3d95d8d0	0.07316744
6	0x3d707e83	0.0587144
7	0x3dfe4026	0.12414579
8	0xbcda3612	-0.02663711
9	0xbd06ab05	-0.03287794
10	0x3d830b25	0.0639861
11	0x3be03cca	0.006843184
12	0xbdd827d9	-0.10554475
13	0xbc231982	-0.009954812
14	0xbd5a7afd	-0.053339947
15	0xbc4a7c82	-0.012358787
16	0xbc5c042d	-0.01342873
17	0x3dc61409	0.0967179
18	0xbd93a18f	-0.07208549
19	0xbd64e6cf	-0.05588418
20	0xbe0a2f9a	-0.13494721
21	0x3d3649e7	0.044504073
22	0xbdb23d79	-0.08703131
23	0xbcace695	-0.021106044
24	0x3cb62ab5	0.022237161
25	0xbd45c0b8	-0.048279494
26	0x3d909511	0.07059682
27	0xbd928c9b	-0.071557246
28	0xbd892491	-0.066964276
29	0xbd246a62	-0.040140517
30	0x3cb531b5	0.022118429
31	0xbd575290	-0.052568972
32	0xbd15a4b5	-0.03653403
33	0x3d1f58ed	0.038903166
34	0x3bc3f00e	0.0059795445
35	0xbcd272bd	-0.025689477
36	0x3d57f2ac	0.052721664
37	0xbd8bcd55	-0.06826273
38	0xbd52c1ec	-0.05145447
39	0xbe064fd4	-0.1311639
40	0xbd612650	-0.05496818
41	0x3d882173	0.06647005
42	0xbdb20f44	-0.08694318
43	0xbd88b591	-0.06675256
44	0x3d9550fe	0.07290839
45	0x3e09e336	0.1346558
46	0xbc316ae0	-0.010828704
47	0xbbe84518	-0.0070883147
48	0xbd77b44c	-0.06047468
49	0xbd80796a	-0.06273158
50	0x3c9a2abb	0.018819204
51	0x3d3dddcc	0.0463541
52	0x3e1b72c8	0.15180504
53	0xbd4b41b7	-0.049623217
54	0x3d660082	0.056152828
55	0x3a4a0ab5	0.0007707284
56	0xbd87617e	-0.06610392
57	0x3dce9883	0.10087683
58	0xbde74fc9	-0.11294515
59	0xbaebb909	-0.0017984222
60	0xbdc8e935	-0.09810106
61	0xbcfe2303	-0.031022554
62	0x3d5d28c6	0.053993963
63	0xbddea5b8	-0.10871452
64	0xbdd0d735	-0.101972975
65	0x3c63b509	0.013898143
66	0xbd57804d	-0.05261259
67	0xbc9855ff	-0.018595694
68	0x3b58a87a	0.0033059404
69	0xbd46a3ff	-0.048496243
70	0x3dcdedec	0.100551456
71	0x3d5ac0eb	0.053406637
72	0xbd5eb232	-0.05436916
73	0x3d9bd6a0	0.07609296
74	0x3d87bcb7	0.066277914
75	0xbd88e5b4	-0.066844374
76	0xbd2cf253	-0.042223286
77	0xbc978e6b	-0.018500527
78	0x3db0a7eb	0.08625778
79	0x3e26d6e8	0.16292918
80	0x3c657d65	0.014006947
81	0xbddbf5f0	-0.10740268
82	0xbd80686f	-0.06269919
83	0xbce61f92	-0.028091226
84	0xbd599bc4	-0.053127065
85	0x3d8535a4	0.06504372
86	0xbda669b5	-0.08125631
87	0xbcb628c6	-0.02223624
88	0xbc73079a	-0.014833355
89	0x3bda360f	0.0066592763
90	0xbcf3554e	-0.029703762
91	0xbb69eaa6	-0.003569284
92	0xbd9dcd89	-0.07705218
93	0xbc580dbf	-0.013186871
94	0xbd73f4b4	-0.05955954
95	0x3b21255c	0.0024588918
96	0xbe34b287	-0.17646228
97	0xbe16f127	-0.1474043
98	0xbc8b65f5	-0.01701639
99	0xbcd0237f	-0.02540755
100	0xbe0c9fdc	-0.13732857
101	0xbe009a4d	-0.12558861
102	0xbd7585e7	-0.059942152
103	0x3c054e6e	0.008136375
104	0xbd65e0b8	-0.05612251
105	0xbd70d9cd	-0.05880146
106	0xbdde7f41	-0.108641155
107	0xbc85dbb8	-0.016340122
108	0x3d0ee1a5	0.03488316
109	0xbc9debb5	-0.019277433
110	0xbd6e94c7	-0.058247354
111	0xbe00767f	-0.12545203
112	0x3d8f7582	0.07004835
113	0xbd5c42f3	-0.053774785
114	0xbce60dd2	-0.028082762
115	0x3db9781d	0.09056113
116	0xbced0fa8	-0.02893813
117	0xbd443a45	-0.047907133
118	0xbd3f78f3	-0.046746206
119	0x3dc647e6	0.09681682
120	0xbd3f4aba	-0.046702124
121	0x3e17ccda	0.14824238
122	0xbd834769	-0.06410105
123	0x3daf4291	0.085576184
124	0xbc593a38	-0.013258509
125	0x3d8b1d53	0.067927025
126	0x3da7663d	0.08173797
127	0xbda7954d	-0.08182774

bn1.running_mean f4 [128]
0	0x3e7218a7	0.23642217
1	0x3e3f8d16	0.18706164
2	0x3efcdd32	0.4938751
3	0x3f1a1972	0.60195076
4	0x3d07cd00	0.033154488
5	0x3ebd944a	0.37027198
6	0x3dd2d59e	0.102946505
7	0x3e00e143	0.1258593
8	0x3e8c4193	0.2739378
9	0x3f18a75b	0.59630364
10	0x3e847dab	0.25877127
11	0x3de6f36b	0.11276897
12	0x3d71856a	0.058965124
13	0x3deb5e80	0.11492634
14	0x3e767873	0.24069385
15	0x3d888c93	0.066674374
16	0x3d7626b3	0.0600955
17	0x3eab18d6	0.33417386
18	0x3e15ccab	0.14628856
19	0x3e7264eb	0.2367131
20	0x3f2a5b0a	0.66545165
21	0x3e62a44c	0.22132987
22	0x3e38ae31	0.18035199
23	0x3e967548	0.29386353
24	0x3e8cbfee	0.2749018
25	0x3e826899	0.25470427
26	0x3efa1161	0.48841384
27	0x3d9b39af	0.07579362
28	0x3e7e466a	0.24831548
29	0x3c486e88	0.012233384
30	0x3e6d0d20	0.23149538
31	0x3d00b992	0.031426974
32	0x3ea5b0e9	0.32361534
33	0x3e09460c	0.13405627
34	0x3eb0d7fb	0.3453978
35	0x3e05c531	0.13063504
36	0x3e6313f5	0.22175582
37	0x3e0b4f72	0.13604525
38	0x3d6c713b	0.057725172
39	0x3dd1dfac	0.1024774
40	0x3dc3431b	0.09534284
41	0x3e0b069d	0.13576742
42	0x3de3a1a7	0.11114817
43	0x3e02dc1a	0.12779275
44	0x3e8637e2	0.2621451
45	0x3f662be3	0.89910716
46	0xbb943a76	-0.0045235706
47	0x3e8e6c6f	0.27817103
48	0x3dd5944a	0.104286745
49	0x3dc7363f	0.097271435
50	0x3da29580	0.07938671
51	0x3e92a888	0.28644204
52	0x3e8ab9bb	0.27094826
53	0x3e3407ff	0.17581175
54	0x3e0e2a52	0.13883331
55	0x3e1a09c2	0.15042785
56	0x3e89f6b6	0.26946038
57	0x3f20841d	0.6270159
58	0x3e2e9614	0.17049438
59	0x3e8e2027	0.27758905
60	0x3e80ba82	0.25142294
61	0x3dce2f35	0.10067598
62	0x3f0d9389	0.55303246
63	0x3ebc5bf6	0.3678891
64	0x3ec0749f	0.37588975
65	0x3e65c675	0.22438987
66	0x3e1f122a	0.15534273
67	0x3de190d1	0.1101395
68	0x3e05f308	0.1308099
69	0x3db53fd1	0.08850063
70	0x3e997166	0.2996933
71	0x3cacf264	0.021111675
72	0x3b807496	0.003920148
73	0x3e9f8c8a	0.3116191
74	0x3e177a88	0.14792836
75	0x3d88c35f	0.06677889
76	0x3b6642aa	0.003513495
77	0x3e47358c	0.1945402
78	0x3ead2820	0.33819675
79	0x3e52e928	0.20596755
80	0x3e91f871	0.28509858
81	0x3e2d92d6	0.16950545
82	0x3ec1e3b9	0.3786905
83	0x3d898300	0.067144394
84	0x3e9109b1	0.28327706
85	0x3eb66f79	0.35631922
86	0x3b8b7629	0.004256029
87	0x3d9832c8	0.07431561
88	0x3e01edec	0.12688416
89	0x3e5ea39c	0.217421
90	0x3ea3eb8c	0.32015646
91	0x3ec37ec0	0.3818264
92	0x3cc7b4c0	0.02437818
93	0x3d4301d0	0.04760915
94	0x3b94d789	0.0045422954
95	0x3e3e1971	0.18564393
96	0x3ead957b	0.33903107
97	0x3f0e10b8	0.5549426
98	0x3e527f4e	0.20556375
99	0x3b74326b	0.0037261497
100	0x3d9bccf1	0.07607449
101	0x3d5a5755	0.053305943
102	0x3e615a96	0.22007212
103	0x3f1e540b	0.6184699
104	0x3b8267b5	0.003979648
105	0x3e2e1b29	0.17002548
106	0x3f1b80c1	0.6074334
107	0x3ebf9e4d	0.3742546
108	0x3e775530	0.2415359
109	0x3c799e65	0.015235518
110	0x3c3ae256	0.011406502
111	0x3ec8439a	0.39114076
112	0x3e46fbc2	0.19431975
113	0x3eb56e97	0.35435936
114	0x3a250636	0.0006295176
115	0x3e3e733a	0.18598643
116	0x3dc4ae6a	0.09603579
117	0x3e7ba8fc	0.24576181
118	0x3e46c9f0	0.1941297
119	0x3eb83be8	0.35983205
120	0x3eafc1cf	0.34327552
121	0x3da62025	0.081116
122	0x3e5d34b8	0.21602142
123	0x3dca510f	0.09878742
124	0x3d29a43f	0.041416403
125	0x3e87a3f9	0.2649229
126	0x3e5307d9	0.20608462
127	0x3e332261	0.17493583

bn1.running_var f4 [128]
0	0x3d92c469	0.071663685
1	0x3dd2a2ef	0.10284983
2	0x3e0cdfbf	0.13757227
3	0x3da0d2cb	0.078527056
4	0x3c3845fe	0.011247156
5	0x3e04f395	0.12983544
6	0x3d09ec56	0.033672653
7	0x3ce976dc	0.02849906
8	0x3e059f45	0.13049038
9	0x3dd6330b	0.104589544
10	0x3cb6249b	0.022234252
11	0x3d0a8d07	0.0338259
12	0x3caa0111	0.020752462
13	0x3cdea5cf	0.027178673
14	0x3d5fb9da	0.0546206
15	0x3cb398a9	0.02192338
16	0x3ce46216	0.027878802
17	0x3df18ded	0.11794648
18	0x3d325eda	0.04354749
19	0x3d9f53cb	0.07779654
20	0x3ee8d5a6	0.454755
21	0x3dd2c90b	0.10292252
22	0x3dc4f7c0	0.09617567
23	0x3e0f54a4	0.13997132
24	0x3e039de1	0.12853195
25	0x3e079199	0.13239135
26	0x3ea8a87f	0.32941052
27	0x3d1ef8f2	0.03881163
28	0x3e18fa7d	0.14939304
29	0x3b055402	0.0020344262
30	0x3d8a64b2	0.06757487
31	0x3bd672a6	0.006544429
32	0x3e0045a4	0.12526566
33	0x3d31a644	0.043371454
34	0x3e43eadc	0.1913256
35	0x3d4f9938	0.05068323
36	0x3d4405e0	0.047857165
37	0x3d2f1837	0.042747702
38	0x3c774e2a	0.015094319
39	0x3ca95236	0.020669084
40	0x3cb338c2	0.02187765
41	0x3d17c189	0.037049804
42	0x3d21e94e	0.039529137
43	0x3d1c2982	0.038125522
44	0x3e0128af	0.12613176
45	0x3ec9cc8a	0.39413863
46	0x36eac2d5	6.996425e-06
47	0x3e165174	0.1467951
48	0x3cb806ad	0.02246412
49	0x3d44c8a4	0.04804291
50	0x3cdb5843	0.026775485
51	0x3d7c7aff	0.061640736
52	0x3e04d367	0.12971269
53	0x3d4057f9	0.046958897
54	0x3d49fbd2	0.04931242
55	0x3d884aa9	0.06654865
56	0x3e08aca6	0.1334711
57	0x3e782004	0.24230963
58	0x3db8853f	0.0900979
59	0x3d60e274	0.054903463
60	0x3dd6622b	0.10467943
61	0x3d016a38	0.03159544
62	0x3ec00624	0.37504685
63	0x3e6ee5fb	0.23329918
64	0x3e51e0b9	0.20495881
65	0x3d99f62c	0.07517657
66	0x3d769ddc	0.06020914
67	0x3cf0491c	0.029331736
68	0x3d2c798c	0.042108104
69	0x3ce76b6a	0.028249461
70	0x3d802e25	0.06258801
71	0x3c098634	0.008393813
72	0x3b859d13	0.0040775626
73	0x3ddb3a01	0.10704423
74	0x3d9e03c4	0.07715562
75	0x3c216203	0.009850028
76	0x3a54be06	0.0008115474
77	0x3d8409e9	0.06447203
78	0x3e05cbc5	0.13066013
79	0x3db0d0d1	0.086335786
80	0x3de7fde6	0.11327724
81	0x3d5364b7	0.05160972
82	0x3e750f4a	0.23931614
83	0x3caf5f58	0.021407768
84	0x3d973d03	0.07384684
85	0x3e2900e0	0.1650424
86	0x3aad7bca	0.0013235745
87	0x3c8e80d5	0.017395416
88	0x3d4d2eae	0.050093345
89	0x3da95ce1	0.08269668
90	0x3dfa21e5	0.12213496
91	0x3e92543c	0.2857989
92	0x3b83f793	0.004027316
93	0x3c70bc11	0.014693276
94	0x3b29256f	0.0025809666
95	0x3d8a60f6	0.06756775
96	0x3dbb189d	0.09135554
97	0x3e87b60b	0.26506075
98	0x3dc92148	0.09820801
99	0x3b5a2dce	0.0033291462
100	0x3cd96f59	0.026542353
101	0x3c42073f	0.011842548
102	0x3da9fc02	0.0830002
103	0x3d89ffb0	0.06738222
104	0x3b1993b9	0.0023433997
105	0x3da0cfc0	0.07852125
106	0x3e4bacc9	0.19890131
107	0x3e69af54	0.22820789
108	0x3d8a39a6	0.06749277
109	0x3b4b00de	0.0030975859
110	0x3b3596c6	0.0027708276
111	0x3e88f6c8	0.2675078
112	0x3d988fe5	0.07449321
113	0x3e0495d9	0.12947787
114	0x3ac53d64	0.0015048203
115	0x3d844997	0.06459349
116	0x3c85b84b	0.01632323
117	0x3da6e992	0.08150019
118	0x3db25f49	0.087095805
119	0x3e14f328	0.14545882
120	0x3e0c5a72	0.13706377
121	0x3cda6c30	0.026662916
122	0x3d62b606	0.055349372
123	0x3cd0a5fb	0.02546977
124	0x3c9edfc9	0.019393818
125	0x3daa4a65	0.08314971
126	0x3d4424e4	0.047886744
127	0x3d528921	0.051400308

fc2.weight f4 [128, 132]
0	0x3c38367a	0.011243457
1	0x3c7cea4e	0.015436722
2	0x3cab9e88	0.020949617
3	0xbd178a50	-0.03699714
4	0xbd3d1543	-0.046162855
5	0xbd0a43dc	-0.033756122
6	0x3d11ec01	0.03562546
7	0xbc1b7b37	-0.009489826
8	0xbd68ff84	-0.056884304
9	0xbc9edb24	-0.019391604
10	0x3d6ef390	0.058337748
11	0xbc13af3b	-0.009013946
12	0xbc969fdb	-0.018386772
13	0xbd4c4bfc	-0.04987715
14	0xbcdefcb8	-0.027220115
15	0xbcac2214	-0.021012343
16	0xbcc29bbc	-0.0237559
17	0xbdb56bf8	-0.08858484
18	0xbc91a272	-0.017777655
19	0x3caa4225	0.020783493
20	0x3da1d54d	0.07902012
21	0x3c48d78a	0.01225842
22	0x3d2b418e	0.041810565
23	0xbd4f3c8e	-0.05059486
24	0xbb80309d	-0.003912045
25	0x3d9e16cf	0.07719194
26	0xbb7eb165	-0.003886306
27	0xbcd3228a	-0.025773305
28	0xbd011da2	-0.0315224
29	0x3d80863c	0.06275603
30	0x3d9710df	0.07376265
31	0x3a7d711d	0.0009668039
32	0xbc6d9217	-0.014500163
33	0x3d41a074	0.04727216
34	0x3d7b1299	0.061297033
35	0xbbf40aa9	-0.00744756
36	0x3c0cc1b5	0.008591105
37	0x3d4f5634	0.05061932
38	0xbcf8ce51	-0.030371817
39	0x3d1f0b6a	0.038829245
40	0x3dfe71bc	0.12424037
41	0x3bb4638d	0.0055050314
42	0xbdbb3394	-0.09140697
43	0x3ddf7a89	0.109120436
44	0xbdc5a3f4	-0.09650412
45	0xbd6978fa	-0.057000138
46	0xbcdf61d5	-0.02726833
47	0xbd466df7	-0.048444714
48	0x3dc9de15	0.09856812
49	0x3cee16f6	0.029063683
50	0xbd0bf68b	-0.03417067
51	0x3ddbd273	0.107334994
52	0x3dc6cf2c	0.09707484
53	0x3d6d5253	0.05793984
54	0x3ba6f333	0.0050949096
55	0xbc8ff6b5	-0.017573694
56	0x3d08a42b	0.033359688
57	0xbdc35ec9	-0.09539563
58	0x3d11559c	0.035482034
59	0xbcb1b1b3	-0.021691179
60	0x3de1506e	0.11001669
61	0x3cdba559	0.026812242
62	0x3ae2482d	0.0017263942
63	0x3d9297bd	0.07157848
64	0x3c3473be	0.011013923
65	0x3ca7a659	0.020465063
66	0xbd2f9082	-0.042862423
67	0x3d31cf7a	0.043410756
68	0x3cd47ab8	0.025937423
69	0xbdaa87a3	-0.08326652
70	0xbb7ff9b0	-0.0039058737
71	0xbbd2f824	-0.006438272
72	0x3d80d373	0.06290331
73	0xbd12ca2f	-0.03583735
74	0xbcc071c5	-0.02349175
75	0x3d1ee34a	0.03879098
76	0xbd58b323	-0.052905213
77	0x3da9b8d3	0.082872055
78	0xbd94cecd	-0.072660066
79	0xbcbf3b3b	-0.023343673
80	0x3ce3a8b6	0.027790409
81	0x3d1fa6a7	0.03897729
82	0x3db00395	0.08594433
83	0x3d48e9b5	0.049051005
84	0x3d957477	0.072976045
85	0xbdb99414	-0.09061447
86	0x3bb5571c	0.005534066
87	0x3c8bcd11	0.017065557
88	0x3cb54e40	0.02213204
89	0xbc3775c1	-0.011197508
90	0x3d0057d1	0.03133375
91	0xbc39626f	-0.011314972
92	0x3d16fd55	0.03686269
93	0x3c89d692	0.016825948
94	0x3c7be0c6	0.015373414
95	0x3cee409c	0.029083543
96	0xbc16bafc	-0.009199854
97	0x3c452093	0.012031692
98	0xbc940fad	-0.018073881
99	0xbd1d15a9	-0.038350735
100	0xba6648aa	-0.00087846315
101	0xbb943baa	-0.004523714
102	0x3db3c0c5	0.08777002
103	0x3da2613a	0.07928701
104	0x3d068ab4	0.03284712
105	0xbdc3f6a9	-0.09568531
106	0x3d2ee7c1	0.042701486
107	0xbe0c04a7	-0.1367365
108	0x3d483206	0.04887583
109	0x3d619c89	0.055080924
110	0x3ade5490	0.0016962457
111	0x3cf52a5f	0.02992743
112	0xbcfea971	-0.031086655
113	0xbd996795	-0.0749046
114	0x3e074d22	0.13213018
115	0x3d9dc831	0.07704199
116	0x3c8ccfb3	0.017188882
117	0x3c84c1d5	0.016205708
118	0x3d9e311c	0.077242106
119	0xbcc09ea7	-0.023513151
120	0x3d4079f3	0.0469913
121	0xbdd52ac1	-0.10408545
122	0xbd4b8612	-0.049688406
123	0xbceadb0e	-0.028668907
124	0x3d208215	0.039186556
125	0x3d0d7745	0.034537572
126	0x3a1a17b3	0.0005878165
127	0xbd88270d	-0.06648073
128	0x3c7302b5	0.014832188
129	0x3c97c723	0.018527573
130	0x3c6d7304	0.014492754
131	0x3c607d32	0.013701724
132	0x3da7ad6b	0.08187374
133	0x3be61836	0.007021929
134	0x3cfb575e	0.030681308
135	0xbb5a8ecf	-0.003334928
136	0x3da8aec4	0.08236459
137	0xbc942649	-0.018084662
138	0x3c0200c1	0.00793475
139	0xbd5d2332	-0.053988643
140	0x3d83083f	0.06398057
141	0x3c913e67	0.017729951
142	0x3d37b139	0.044846747
143	0xbd139476	-0.036030255
144	0xbdaf1b55	-0.08550135
145	0xbdb3242c	-0.087471336
146	0x3db90410	0.09033978
147	0xbd6bc087	-0.057556655
148	0xbd82e9c9	-0.06392247
149	0xbd158c1c	-0.03651057
150	0x3bb6fb6e	0.005584172
151	0xbd3821cb	-0.044954102
152	0xbdddfe70	-0.10839546
153	0x3d69e8c8	0.057106763
154	0x3cc1187e	0.02357125
155	0x3c8695a2	0.016428772
156	0xbc41245d	-0.011788455
157	0xbce8a9f4	-0.028401352
158	0xbb83a92f	-0.004017971
159	0x3d0b4401	0.0340004
160	0x3c34eecd	0.011043263
161	0x3d87b933	0.06627121
162	0x3d3b4587	0.045720603
163	0x3dd81d9e	0.10552524
164	0x3d8dee59	0.06930227
165	0x3cc6b8d9	0.024258064
166	0xbc1b5dfb	-0.009482856
167	0x3d8f82b8	0.070073545
168	0xbd6bc964	-0.057565108
169	0x3c013db7	0.007888249
170	0xbe060fe5	-0.13092001
171	0xbd075f56	-0.033049904
172	0xbc8d8fe2	-0.017280523
173	0xbcca8f60	-0.02472657
174	0x3d773386	0.06035187
175	0x3c2a729d	0.0104033025
176	0xbdd558bc	-0.10417315
177	0xbdf6fd03	-0.12059977
178	0xbdcaa5c2	-0.09894897
179	0x3d30801e	0.043090932
180	0xbb775766	-0.0037741303
181	0xbd0a4502	-0.033757217
182	0xbd5019fd	-0.050806034
183	0x3d9c78e7	0.07640248
184	0xbc076e23	-0.008266005
185	0xbde08795	-0.1096336
186	0xbafd0ee8	-0.001930681
187	0x3d625944	0.05526091
188	0xbce2f81e	-0.027706202
189	0xbda17f55	-0.07885615
190	0xbc005508	-0.007832773
191	0x3d975e20	0.07391
192	0xba271de0	-0.0006374996
193	0xbd745bcd	-0.05965786
194	0xb9e6ee42	-0.00044046534
195	0xbcb6ea0f	-0.022328405
196	0xbd91384f	-0.07090818
197	0xbddb5637	-0.107098036
198	0xbdbfc086	-0.09362893
199	0x3d20f4bd	0.0392959
200	0xbdab32dc	-0.0835931
201	0x3c145ff9	0.009056085
202	0xbc89b438	-0.016809568
203	0xbdd6e350	-0.10492575
204	0xbd2d5c36	-0.042324267
205	0xbdb5b933	-0.088732146
206	0xbb3d5e62	-0.0028895368
207	0xbb9dc24c	-0.0048144218
208	0xbdc905b2	-0.098155394
209	0xbdd51109	-0.1040364
210	0xbbafd513	-0.0053659766
211	0xbcf52209	-0.029923456
212	0xbd8de6be	-0.06928776
213	0xbc3d3131	-0.011547373
214	0x3c599223	0.013279471
215	0xbdb0c682	-0.08631612
216	0x3d5c3d2a	0.053769268
217	0xbe11131a	-0.14167443
218	0xbb60f32d	-0.0034324632
219	0xbdb59365	-0.08866004
220	0x3c2869ff	0.010279178
221	0xbdcf7658	-0.10129994
222	0x3d7409ac	0.059579536
223	0x3c42fbff	0.011900901
224	0x3d493790	0.049125254
225	0xbc8c2669	-0.01710816
226	0xbe10ef36	-0.14153752
227	0x3d2670f3	0.04063506
228	0x3d7daa63	0.06193007
229	0x3d948f10	0.072538495
230	0xbd8b4878	-0.06800932
231	0x3d942477	0.072335176
232	0xbd950c23	-0.072777055
233	0xbcf4bd0b	-0.029875299
234	0xbd43dc7d	-0.047817696
235	0xbd12c7aa	-0.035834946
236	0xbd1ac58d	-0.037786055
237	0xbd247336	-0.040148936
238	0x3d57ba19	0.05266771
239	0xbc724b86	-0.014788514
240	0x3c80451c	0.015657954
241	0xbd12e42c	-0.035862133
242	0x3c874b51	0.016515406
243	0x3d238487	0.03992131
244	0x3da37f9c	0.07983324
245	0x3c5cdfa1	0.013481052
246	0x3d2f28bd	0.04276346
247	0xbdd2c0dc	-0.10290691
248	0x3da890ac	0.08230719
249	0x3da97f3d	0.08276222
250	0x3d6b7f85	0.05749466
251	0xbdbcd687	-0.09220605
252	0xbdbfe575	-0.09369937
253	0xbd429c0c	-0.0475121
254	0x3c8139d9	0.015774654
255	0xbcca8a3b	-0.024724117

fc2.bias f4 [128]
0	0xbc4bed77	-0.012446753
1	0xbdf15eeb	-0.11785682
2	0xbd18ddbc	-0.037320837
3	0xbd85ec27	-0.06539183
4	0xbd4700b2	-0.048584647
5	0xbd2bebaa	-0.041972794
6	0xbdec2077	-0.1152963
7	0x3d0c9821	0.03432477
8	0xbdbae352	-0.09125389
9	0x3d984fbd	0.07437084
10	0xbd012391	-0.03152806
11	0xbd37914b	-0.044816297
12	0xbdf6564d	-0.12028179
13	0x3d8fe11c	0.07025358
14	0xbd446e8e	-0.047956996
15	0xbc6b34b7	-0.01435583
16	0xbd7bb48c	-0.06145148
17	0xbd7cf688	-0.061758548
18	0xbd6dbc5b	-0.058040958
19	0xbdfd5de8	-0.12371427
20	0xbd4a9dff	-0.049467083
21	0x3dd74db2	0.10512866
22	0xbdf9371b	-0.12168714
23	0xbda2541c	-0.07926199
24	0xbcdb261e	-0.026751574
25	0x3d92cfb0	0.071685195
26	0x3cc68f35	0.024238208
27	0x3dab78e2	0.08372666
28	0x3dbecc23	0.0931628
29	0x3e161a82	0.1465855
30	0xbe2e7e48	-0.1704036
31	0x3ccc67a9	0.024951773
32	0xbdd8a430	-0.10578191
33	0xbdc7d4d7	-0.09757393
34	0xbc8362ba	-0.016038287
35	0xbdf77e98	-0.12084693
36	0x3de1dcf8	0.110284746
37	0xbda9253b	-0.08259054
38	0xbe13045a	-0.14357129
39	0x3d4730db	0.048630577
40	0xbdf7b742	-0.120955005
41	0xbc058b4e	-0.008150889
42	0xbe3b0724	-0.18264443
43	0x3da649a0	0.081195116
44	0xbde69c92	-0.11260332
45	0xbd4b74ad	-0.049671818
46	0xbc77029d	-0.015076307
47	0x3dce643e	0.100777134
48	0xbd6933e1	-0.05693424
49	0xbe0b9a2d	-0.13633032
50	0xbda5ffa6	-0.08105402
51	0xbd073f42	-0.03301931
52	0x3c74a297	0.014931343
53	0xbdc43169	-0.09579737
54	0x3e1cb172	0.15302065
55	0x3e02f066	0.12787017
56	0x3e12bd75	0.14330085
57	0x3d7784b9	0.06042931
58	0xbe08457b	-0.13307755
59	0xbdacc3fb	-0.08435818
60	0xbd49c2f8	-0.049258202
61	0xbd917267	-0.07101899
62	0xbdadc7d7	-0.08485382
63	0xbe10ae13	-0.14128904
64	0xbdbcb72d	-0.092146255
65	0x3c4e3955	0.012586911
66	0x3d03aa00	0.032144547
67	0x3db8d473	0.090248965
68	0xbda612b3	-0.08109035
69	0xbdd60d97	-0.10451811
70	0x3d3b9855	0.045799572
71	0x3cb2b85d	0.021816427
72	0xbdeb48a7	-0.11488467
73	0xbdb57195	-0.08859555
74	0xbd024fc5	-0.031814355
75	0x3ccd3e71	0.025054188
76	0xbe1955c8	-0.14974129
77	0xbda4a68d	-0.080395795
78	0xbe368634	-0.17824632
79	0xbe1b3394	-0.15156394
80	0xbd8681b0	-0.06567705
81	0xbe049de5	-0.12950857
82	0x3e2d1cdc	0.1690554
83	0xbbc1293b	-0.0058948076
84	0x3dfd3c1c	0.123649806
85	0xbd7a058e	-0.061040454
86	0x3dd27735	0.10276643
87	0xbd6d95af	-0.058004078
88	0x3e07d15a	0.13263455
89	0xbdd6fef6	-0.10497849
90	0xbdd3770c	-0.10325441
91	0xbc3389be	-0.010958133
92	0xbcb7e75d	-0.02244919
93	0xbd6f2888	-0.058388263
94	0xbcaf5736	-0.02140389
95	0xbcdc4422	-0.026887957
96	0x3c9beab5	0.019032815
97	0x3dfca664	0.12336424
98	0xbd33e282	-0.043917187
99	0xbd884703	-0.066541694
100	0x3da79483	0.08182623
101	0x3dc1c553	0.09461465
102	0xbde0989d	-0.10966609
103	0xbd98303e	-0.074310765
104	0x3d629c44	0.055324808
105	0xbd608aad	-0.05481975
106	0x3e44dd35	0.19225009
107	0x3dd89e5c	0.1057708
108	0x3d40436f	0.04693931
109	0x3ce1b6ab	0.027552923
110	0xbd97bb12	-0.07408728
111	0xbc0e8b6d	-0.008700234
112	0x3dac2063	0.08404615
113	0x3beab6a5	0.007162886
114	0x3e23b8a6	0.15988407
115	0xbdf650ac	-0.12027106
116	0x3cd80a64	0.026372142
117	0xbdc66252	-0.09686722
118	0xbd8cbd7b	-0.06872078
119	0xbe0655b9	-0.13118638
120	0xbd8d3200	-0.06894302
121	0xbde5d201	-0.11221696
122	0x3d7cc430	0.061710536
123	0x3d97301a	0.073822215
124	0x3df6f8bd	0.12059162
125	0xbd901aa3	-0.070363306
126	0xbe3989a9	-0.1811892
127	0xb84f63ba	-4.9445523e-05

fc3.weight f4 [1, 128]
0	0xbc56d961	-0.013113351
1	0xbd2760ab	-0.040863674
2	0xbd3eb2d1	-0.04655725
3	0xbc940ed3	-0.018073475
4	0xbd6c7f04	-0.05773832
5	0xbd05ea3c	-0.032694086
6	0xbcca2b36	-0.024678808
7	0x3d5f448c	0.05450873
8	0xbd3ef05c	-0.046615943
9	0x3d8e0f0a	0.06936462
10	0x3d7a26b2	0.06107206
11	0x3d812592	0.06305994
12	0xbd18e971	-0.037332002
13	0x3d70f389	0.058826003
14	0x3d036d67	0.032086756
15	0x3dac239a	0.08405228
16	0xbd2c390e	-0.0420466
17	0xbd094c24	-0.03351988
18	0xbcececfe	-0.0289216
19	0xbceb3cac	-0.028715454
20	0x3d7e4b21	0.062083367
21	0x3d6de31d	0.05807792
22	0xbd468648	-0.048467904
23	0xbd1372ee	-0.035998277
24	0xbc99d13c	-0.018776529
25	0x3d276cac	0.040875122
26	0x3d3f482f	0.0466997
27	0x3d99d085	0.07510475
28	0x3d816448	0.06317955
29	0x3d790229	0.060793076
30	0xbd4510ac	-0.048111603
31	0x3d5128a3	0.051064145
32	0xbd7c296f	-0.06156295
33	0xbd7b2550	-0.06131488
34	0x3d4a30b7	0.049362864
35	0xbd53a1fb	-0.05166815
36	0x3d51ea2d	0.051248718
37	0x3d9a923f	0.075474255
38	0xbd1dab9a	-0.03849373
39	0x3d3a962c	0.04555337
40	0xbd2f3339	-0.04277346
41	0xbcd9dc97	-0.026594443
42	0xbd16ef29	-0.036849175
43	0x3d863c17	0.0655443
44	0xbd889d3a	-0.066706136
45	0xbd179b91	-0.037013594
46	0x3d32539c	0.043536767
47	0x3d8c4c5a	0.068505004
48	0xbd403c24	-0.046932355
49	0xbd6d3c1d	-0.057918657
50	0xbd001bd2	-0.03127653
51	0x3ce97f62	0.028503124
52	0x3d215768	0.039389998
53	0xbd06df76	-0.032927953
54	0x3d23a46a	0.03995172
55	0x3d728c02	0.059215553
56	0x3d78f755	0.06078275
57	0x3d6c244c	0.057651803
58	0xbce40dc1	-0.02783859
59	0xbd83e7a5	-0.06440667
60	0x3d6dbd9a	0.058042146
61	0xbcc423bc	-0.02394282
62	0xbd366e2e	-0.04453867
63	0xbd850fb5	-0.064971365
64	0xbc97ccd2	-0.018530283
65	0x3d8f0d5f	0.06984972
66	0x3d8ba1b5	0.068179525
67	0x3d3fdce1	0.046841506
68	0xbd3e3248	-0.04643467
69	0x3e4343da	0.19068852
70	0x3d7e9764	0.062156096
71	0x3d6e7923	0.058220994
72	0xbdc29340	-0.09500742
73	0xbd189bda	-0.037258007
74	0x3d585606	0.052816413
75	0x3d3e4eca	0.046461858
76	0xbc8a6350	-0.016893059
77	0xbd5f3c5c	-0.054500923
78	0xbd8dc7ac	-0.0692285
79	0xbd6382d7	-0.0555447
80	0xbd125c67	-0.035732653
81	0xbd64b968	-0.05584088
82	0x3d7d3497	0.06181773
83	0x3d2dd8a0	0.042442918
84	0x3d3b2066	0.045685194
85	0xbd29f5fb	-0.04149435
86	0x3d5af424	0.053455487
87	0xbc02aa29	-0.00797514
88	0x3d5a89ae	0.053353958
89	0xbd2fdc6f	-0.04293483
90	0xbc5c8378	-0.013459079
91	0x3d3b639c	0.04574929
92	0xbd44538a	-0.04793123
93	0xbd20b001	-0.03923035
94	0x3d69dadb	0.057093482
95	0x3d4aef6c	0.049544737
96	0x3d41d50c	0.047322318
97	0x3d5f4d04	0.054516807
98	0x3d751a7a	0.059839703
99	0xbcedf01b	-0.029045155
100	0x3d62fd01	0.055417065
101	0x3d6a3b9d	0.057185758
102	0xbd4d27a1	-0.05008662
103	0xbd24bf82	-0.0402217
104	0x3d2b119f	0.04176485
105	0xbd86c169	-0.06579859
106	0x3d2f7ce7	0.042843726
107	0x3d6e38cb	0.05815963
108	0x3d44be46	0.04803302
109	0x3d147f33	0.03625412
110	0xbd1eaf91	-0.038741652
111	0x3d5d2e62	0.053999312
112	0x3cfee140	0.031113267
113	0x3d8944f5	0.06702606
114	0x3d4ff67b	0.05077217
115	0xbd158998	-0.036508173
116	0x3d486823	0.048927438
117	0xbd6fc609	-0.05853847
118	0xbd40157f	-0.0468955
119	0xbd5a8ef6	-0.053358994
120	0xbd768629	-0.06018654
121	0xbd676376	-0.056491338
122	0x3d4dee34	0.050275996
123	0x3d5075d6	0.050893627
124	0x3d2e6b3e	0.042582743
125	0xbd17408c	-0.03692679
126	0xbce99b60	-0.028516471
127	0x3d54a6ba	0.051916815
