checkpoint_actor.pth (torch_old, 91728 bytes, 14 tensors)

fc1.weight f4 [128, 33]
0	0xbe01d3e2	-0.12678483
1	0xbd4c7376	-0.0499148
2	0x3b2cf9f3	0.0026394099
3	0xbcd18a72	-0.025578711
4	0xbd7e6238	-0.062105387
5	0xbda363b0	-0.07977998
6	0xbcd28322	-0.025697295
7	0x3d0384de	0.032109134
8	0xbcb78de3	-0.022406524
9	0xbc8391ba	-0.016060699
10	0xbd448cf6	-0.047985993
11	0xbcb7c616	-0.022433322
12	0xbc546c12	-0.012965219
13	0x3df207f1	0.11817921
14	0x3df2a9cd	0.11848793
15	0xbb364fbd	-0.0027818524
16	0x3bdfe668	0.0068328865
17	0x3c8099bc	0.015698306
18	0xbc4b4867	-0.012407399
19	0xbd2a3291	-0.04155213
20	0xbc912e97	-0.017722411
21	0xbcb41cb0	-0.021986336
22	0xbc0f389f	-0.008741527
23	0x3c61875e	0.013765184
24	0x3c42c441	0.011887611
25	0xbd66f361	-0.056384448
26	0xbdf1eeb4	-0.11813107
27	0x3decb9e4	0.11558893
28	0x3cdb92d9	0.02680342
29	0x3d8cc3e5	0.068733014
30	0xbc2d8817	-0.010591528
31	0x3c1f4d38	0.009723
32	0xbd1b5d1d	-0.037930597
33	0x3da61e45	0.08111242
34	0xbd290122	-0.041260846
35	0x3ccde21e	0.025132235
36	0x3c6b72b1	0.014370606
37	0x3d4e28d6	0.050331913
38	0xbb828e4a	-0.0039842473
39	0xbc122345	-0.008919542
40	0x3b3c3626	0.0028718798
41	0x3d271873	0.0407948
42	0xb9860ed9	-0.00025569534
43	0x3c686b28	0.014185704
44	0xbb4beb7a	-0.0031115697
45	0xbcb5c4e0	-0.022188604
46	0xbe166f92	-0.14690998
47	0x3d667346	0.056262277
48	0xbd47d9ef	-0.048791822
49	0xbd053f97	-0.032531347
50	0x3c8d562e	0.017253008
51	0xbd0e1725	-0.03469004
52	0x3be80022	0.007080094
53	0xbcb91e22	-0.022597376
54	0xbb43ee7c	-0.0029896786
55	0xbd01cb25	-0.031687874
56	0xbd6712fe	-0.056414597
57	0x3c82a314	0.015946902
58	0xbc76694b	-0.015039752
59	0x3d8bc7d8	0.068252265
60	0xbd03a610	-0.03214079
61	0x3d60192e	0.054711513
62	0xbd81afcc	-0.06332359
63	0xbd215cf7	-0.0393953
64	0x3d05bdb4	0.032651618
65	0x3ea32f81	0.3187218
66	0x3d1d71d5	0.038438637
67	0x3d2485e5	0.040166754
68	0xbd354523	-0.044255387
69	0xbcaee4df	-0.021349369
70	0x3dee8b79	0.11647696
71	0x3d024c05	0.03181078
72	0xbc8c502e	-0.017128076
73	0x3d307f17	0.043089952
74	0xbaf7a574	-0.0018893913
75	0xbc9698ee	-0.01838347
76	0xbcdac3fe	-0.026704784
77	0xbca1b355	-0.019738832
78	0x3d634c4b	0.05549268
79	0x3ce61d0f	0.028090028
80	0xbdb5a4f4	-0.08869353
81	0x3e0f6f75	0.14007361
82	0x3cebd950	0.028790146
83	0x3d056445	0.032566328
84	0xbd8e6cf8	-0.06954378
85	0x3cd82821	0.026386322
86	0x3dbf0a4a	0.09328134
87	0xbc55794a	-0.013029406
88	0x3d265bca	0.04061488
89	0xbc118a9d	-0.008883146
90	0xbc84af6b	-0.016196927
91	0x3c319849	0.01083953
92	0xbd95d418	-0.07315844
93	0x3b825de8	0.0039784797
94	0xba89c2b5	-0.0010510298
95	0x3c232a18	0.009958766
96	0x3d80abc1	0.062827595
97	0xbce429ce	-0.027851965
98	0xbe20db1d	-0.15708585
99	0x3d878c7e	0.06618594
100	0xbd288b76	-0.041148625
101	0xbd8af089	-0.0678416
102	0xbd6d202b	-0.057892006
103	0x3d6f4765	0.058417697
104	0xbc803d5a	-0.015654255
105	0x3d04bec2	0.032408483
106	0xbd117637	-0.03551313
107	0xbd1a70c1	-0.037705187
108	0x3cfc2b81	0.030782463
109	0x3c433a6c	0.011915784
110	0xbcc240ac	-0.023712479
111	0xbbe4700f	-0.0069713662
112	0x3c07976a	0.008275846
113	0x3d87644b	0.06610926
114	0xbd001a04	-0.03127481
115	0xbd54bdbf	-0.05193877
116	0x3cb4ed7e	0.022085901
117	0xbd9ef9d5	-0.077624954
118	0xb9b9f71a	-0.00035470055
119	0xbc8c8b05	-0.017156133
120	0xbc3136db	-0.010816301
121	0xbcf5a4ea	-0.029985864
122	0xbcb45bbe	-0.022016402
123	0x3dac0ae7	0.08400517
124	0xbd9d6881	-0.07685948
125	0x3d186b60	0.037211776
126	0x3cf2b474	0.029627062
127	0xbc7c7745	-0.015409295
128	0xbc4f3e70	-0.012649164
129	0x3d9d0c28	0.07668334
130	0x3d8f93ed	0.070106365
131	0x3c9c7542	0.019098882
132	0x3d5e20f4	0.054230645
133	0x3df45eb6	0.11932127
134	0xbc5df18a	-0.013546357
135	0xbcc3adab	-0.023886522
136	0xbcafc8a1	-0.021457972
137	0x3be5913f	0.00700584
138	0xbc793e41	-0.015212596
139	0xbd90b583	-0.070658706
140	0x3aad48eb	0.0013220584
141	0x3d7e981e	0.06215679
142	0x3c2a42eb	0.010391931
143	0x3c5072d2	0.012722688
144	0x3c7ea14f	0.015541389
145	0xbdea6ba9	-0.11446316
146	0xbd2e28fe	-0.042519562
147	0x3d955d4d	0.07293186
148	0x3c49ea6d	0.012323958
149	0x3b36181c	0.0027785366
150	0xbd4623cf	-0.048373993
151	0xbc5cd5db	-0.0134787215
152	0x3af2e7b0	0.0018532183
153	0xbbf8ae1f	-0.007589116
154	0x3b9b9925	0.004748481
155	0xbc7d2976	-0.01545178
156	0x3b4c0b88	0.0031134803
157	0x3b47fad4	0.0030514495
158	0x3d61de1d	0.055143464
159	0x3dc36c9e	0.095422015
160	0xbdc08bdf	-0.09401678
161	0x3c7427a8	0.014902033
162	0xbcea9939	-0.028637515
163	0x3d885961	0.06657673
164	0xbdc21d0b	-0.09478196
165	0x3de7783e	0.11302231
166	0xbd10ee2d	-0.035383392
167	0x3dc4db73	0.09612169
168	0x3d039e81	0.032133583
169	0x3d065d3c	0.03280376
170	0x3d8ea2f5	0.06964675
171	0x3dc836d7	0.09776085
172	0xbdc04d0e	-0.09389697
173	0x3e03f698	0.12887037
174	0x3d42d00e	0.047561698
175	0xbd5342a1	-0.051577214
176	0xbb858924	-0.0040751863
177	0x3c99954e	0.018747952
178	0xbd8cc138	-0.06872791
179	0xbd9c344b	-0.076271616
180	0xbbb7d667	-0.0056102755
181	0x3c5f5cf3	0.013633001
182	0x3c7520ce	0.0149614345
183	0xbcccd4e3	-0.025003856
184	0xbbd63bf0	-0.006537907
185	0xbd152cbf	-0.036419626
186	0xbc89a817	-0.016803784
187	0xbcb59adb	-0.022168567
188	0xbdbc1f0a	-0.09185608
189	0xbdca8153	-0.09887948
190	0x3cfbb905	0.030727873
191	0x3d17473c	0.03693317
192	0x3d8d402a	0.06897004
193	0xbd32e977	-0.04367968
194	0xbc881a7c	-0.016614191
195	0x3cb81462	0.022470657
196	0x3d74c01e	0.05975353
197	0x3d063711	0.03276736
198	0x3d411a64	0.04714431
199	0x3ddbc1a9	0.10730297
200	0x3e01e736	0.12685856
201	0xbcfa4722	-0.030551497
202	0xbd9b9f43	-0.07598736
203	0x3da67bea	0.081291035
204	0xbcc66a88	-0.02422072
205	0xbc24b830	-0.010053679
206	0xbd10688a	-0.035255946
207	0xbcaa2953	-0.020771658
208	0x3cc2993b	0.023754707
209	0x3d26aa82	0.040689953
210	0x3cca4c11	0.024694474
211	0xbc4a50fd	-0.012348411
212	0x3db3f25a	0.08786459
213	0x3d3d80ea	0.04626552
214	0xbcab8217	-0.020936055
215	0xbad8a219	-0.0016527801
216	0x3e223fdb	0.15844671
217	0x3d4495c7	0.0479944
218	0x3bd8384e	0.006598509
219	0xbd2d201e	-0.042266957
220	0xbd945a68	-0.07243806
221	0x3c000b45	0.007815187
222	0x3d7f4934	0.06232567
223	0x3db35db5	0.087581076
224	0xbc8e382a	-0.017360765
225	0xbc95c565	-0.018282602
226	0xbb99d1be	-0.0046941927
227	0xbba5d1f0	-0.005060427
228	0xbdb0e147	-0.08636718
229	0xbdb2aada	-0.087239936
230	0x3da2292c	0.07918009
231	0xbdc5f020	-0.09664941
232	0xbd452be4	-0.04813756
233	0xbdc4f1fc	-0.09616467
234	0x3d962199	0.07330627
235	0xbc8259cb	-0.015911957
236	0x3d2f101b	0.04273997
237	0x3d32e0f0	0.04367155
238	0xbd6c4dd2	-0.057691403
239	0x3c3a43e5	0.011368726
240	0xbd984dee	-0.07436739
241	0xbd4f89b3	-0.05066843
242	0x3b3552ba	0.0027667717
243	0xbda7b750	-0.08189261
244	0x3d756fad	0.059920955
245	0x3c6fc168	0.014633514
246	0x399cc407	0.0002990069
247	0x3dc8f113	0.09811606
248	0x3d31e0b2	0.043427177
249	0xbda93ed8	-0.082639396
250	0xbac5f753	-0.0015103616
251	0xbcc3feea	-0.023925263
252	0xbd41d299	-0.047319982
253	0x3dd097d0	0.10185206
254	0xbc472588	-0.012154944
255	0x3d0e04cf	0.034672555

fc1.bias f4 [128]
0	0x3d344d1b	0.044018846
1	0x3e1f2408	0.15541089
2	0x3e1aa0f4	0.15100461
3	0x3e558927	0.208531
4	0xbe25ccf0	-0.16191459
5	0xbb07762d	-0.0020669803
6	0xbe281663	-0.1641479
7	0x3c44be72	0.012008296
8	0x3e22ff66	0.1591774
9	0x3d1dfa98	0.038569063
10	0x3c9426c9	0.0180849
11	0xbc41ec03	-0.011836055
12	0xbe25854c	-0.1616413
13	0x3c20ba25	0.009810005
14	0xbc579460	-0.013157934
15	0xbd9df63b	-0.0771298
16	0xbdccb112	-0.09994711
17	0x3e0ceb73	0.13761692
18	0xbd80154e	-0.062540635
19	0x3e0fe110	0.14050698
20	0xba26e3f4	-0.0006366365
21	0x3d39d596	0.045369707
22	0xbdbf9ee2	-0.09356476
23	0xbd7bb425	-0.061451096
24	0xbd868b7a	-0.06569572
25	0x3e164bdf	0.1467738
26	0xbc30038d	-0.010743034
27	0xbcfee965	-0.03111715
28	0xbe13f6da	-0.14449635
29	0xbd7117da	-0.058860637
30	0x3dbad1b8	0.09122032
31	0x3d9ff6fa	0.07810779
32	0x3e2013ac	0.15632504
33	0xbd908d5d	-0.07058213
34	0x3c231953	0.009954768
35	0xbd193244	-0.037401453
36	0xbc8e85c9	-0.017397778
37	0xbe60a426	-0.21937618
38	0x3db0c5cc	0.08631477
39	0xbc9bc452	-0.019014511
40	0xbe12ccd8	-0.14335954
41	0xbc1c8854	-0.0095539875
42	0xbc2454b9	-0.010029965
43	0x3ceed4fe	0.029154297
44	0xbdb7be08	-0.089717925
45	0xbd87539c	-0.06607744
46	0xbd5abde1	-0.05340374
47	0xba81224f	-0.0009852144
48	0x3bc54769	0.0060204756
49	0x3e18141a	0.14851418
50	0xbe037727	-0.12838422
51	0xbcec19d8	-0.028820917
52	0xbe1156e2	-0.141933
53	0xbde0e2ea	-0.109807804
54	0x3e145503	0.14485554
55	0xbdb31167	-0.087435536
56	0xbe43ccd6	-0.19121107
57	0xbb4e8b8a	-0.0031516277
58	0xbc957268	-0.01824303
59	0xbdcc36e9	-0.09971411
60	0x3cb36daa	0.021902878
61	0xbc2ced64	-0.010554645
62	0x3d804c72	0.06264581
63	0x3d15b452	0.03654892
64	0xbddd786a	-0.10813983
65	0x3d1bfb5b	0.038081508
66	0x3e953ecd	0.29149476
67	0xbe134e74	-0.14385396
68	0x3d8ad81c	0.06779501
69	0xbca667e9	-0.02031322
70	0x3c13e898	0.009027623
71	0x3c88cbb8	0.016698703
72	0xbdd9c823	-0.10633876
73	0x3de95416	0.11392991
74	0x3e32ce14	0.17461425
75	0x3dbfdb3b	0.09367987
76	0x3c85b4ac	0.016321503
77	0xbdad2b57	-0.08455532
78	0xbd5ff677	-0.054678407
79	0x395b1ed9	0.00020896959
80	0xbd3986e6	-0.045294665
81	0xbe7215bb	-0.23641102
82	0x3b870436	0.004120375
83	0xbdc129a3	-0.0943177
84	0x3d9d51c3	0.076816104
85	0xbdccda9e	-0.100026354
86	0x3dc86467	0.09784775
87	0x3e002338	0.12513435
88	0xbe40ffb6	-0.18847546
89	0xbb8bc8ac	-0.0042658653
90	0x3d97eb5b	0.07417937
91	0x3da568a9	0.08076603
92	0x3d44ef10	0.04807955
93	0x3d30265e	0.04300534
94	0xbe1d3b19	-0.15354575
95	0x3d64ab80	0.055827618
96	0xbc68755c	-0.014188137
97	0x3dc39fd2	0.09551968
98	0x3d7fb76d	0.062430788
99	0xbd3df7c6	-0.046378873
100	0x3ddccd79	0.10781378
101	0x3d0ad09d	0.033890355
102	0x3e5ce413	0.21571378
103	0xbe568a44	-0.20951182
104	0x3cbcc1d7	0.023041649
105	0xbe3e51a6	-0.18585834
106	0x3d941e7f	0.07232379
107	0x3df47324	0.11936024
108	0xbde68356	-0.11255519
109	0x3d9d68d2	0.076860085
110	0x3e36fcbc	0.17869848
111	0x3c9778d5	0.018490234
112	0xbe31ebc1	-0.17375089
113	0x3dce973e	0.10087441
114	0x3d511e74	0.051054433
115	0xbe603353	-0.21894579
116	0x3dda4729	0.10658104
117	0x3dcd33a4	0.10019615
118	0x3db8aa11	0.090168126
119	0xbe3e12f1	-0.18561913
120	0xbe294e1e	-0.16533706
121	0xbe369768	-0.17831194
122	0x3da165d3	0.078807496
123	0xbe52f7e9	-0.20602383
124	0xbcf0db5f	-0.02940148
125	0xbde29968	-0.11064416
126	0x3d7836d9	0.06059918
127	0xbc7d61a8	-0.015465178

bn1.weight f4 [128]
0	0x3e9ec8eb	0.31012663
1	0x3f1f11a7	0.6213631
2	0x3f5e9415	0.86944705
3	0x3f0c98fa	0.54920924
4	0x3e8524a5	0.2600452
5	0x3edd36d7	0.43205902
6	0x3dc7de62	0.09759213
7	0x3e8acaaf	0.2710776
8	0x3ecc8384	0.39944088
9	0x3e79ea8e	0.24405882
10	0x3f50060c	0.81259227
11	0x3f203f0c	0.625962
12	0x3f4f41c6	0.8095974
13	0x3ecd781d	0.40130702
14	0x3ecd51e8	0.40101552
15	0x3f32ecd7	0.6989264
16	0x3ec4b212	0.38417107
17	0x3e9af9b8	0.30268645
18	0x3e2e3731	0.17013241
19	0x3f405b1b	0.75139016
20	0x3f4c9c43	0.79925936
21	0x3dfe5414	0.124183804
22	0x3ec83541	0.3910313
23	0x3e98d2fb	0.29848465
24	0x3eb4d4cc	0.353186
25	0x3f4d8c88	0.8029256
26	0x3f4139f3	0.7547905
27	0x3ee5b9b8	0.44868255
28	0x3f3adbdc	0.7299173
29	0x3f236cd9	0.63837963
30	0x3f409c35	0.75238353
31	0x3e6afb86	0.22947511
32	0x3f1c24e0	0.60993767
33	0x3e6099ea	0.21933714
34	0x3e6df44b	0.23237722
35	0x3eb59f9e	0.3547334
36	0x3ee72f68	0.45153356
37	0x3e39a145	0.18127926
38	0x3f0dfa86	0.55460393
39	0x3f0ea18a	0.5571524
40	0x3ea18c27	0.3155224
41	0x3f229938	0.63515043
42	0x3f5dbd4a	0.8661696
43	0x3ef3136f	0.47475764
44	0x3e8a03e1	0.26956084
45	0x3e0ffaa5	0.14060457
46	0x3e83fe6a	0.2578004
47	0x3e98dcb4	0.29855883
48	0x3e7f7a01	0.24948885
49	0x3eacd10e	0.33753246
50	0x3f1e7426	0.6189598
51	0x3f12c0a9	0.57325226
52	0x3f6678d3	0.90028113
53	0x3f7bc15e	0.9834193
54	0x3ec2c843	0.38043413
55	0x3eb71c3a	0.35763723
56	0x3f1b27c2	0.6060754
57	0x3e76e924	0.24112374
58	0x3f26a465	0.65094596
59	0x3ee8a67c	0.45439517
60	0x3e528933	0.2056015
61	0x3e757331	0.23969723
62	0x3e7bd366	0.24592361
63	0x3f0f4bd1	0.5597506
64	0x3f4e37de	0.80553997
65	0x3f5093d2	0.81475556
66	0x3ede192a	0.43378574
67	0x3e8526d5	0.2600619
68	0x3ea3d0cf	0.31995246
69	0x3eba660a	0.36405975
70	0x3ebc18ad	0.36737576
71	0x3e60423b	0.21900265
72	0x3f39ea59	0.7262321
73	0x3e65f7ef	0.2245786
74	0x3eb6d06d	0.3570589
75	0x3f478d83	0.77950305
76	0x3e73869e	0.23781821
77	0x3f12b2b9	0.5730396
78	0x3f68b089	0.9089437
79	0x3f63e3d2	0.890195
80	0x3f304bac	0.68865466
81	0x3eea052d	0.45707074
82	0x3f351fa0	0.7075138
83	0x3eee78c0	0.465765
84	0x3ea93f82	0.33056265
85	0x3ef5b217	0.47987434
86	0x3f03b3c9	0.51446205
87	0x3f4740ce	0.7783326
88	0x3f376b0a	0.71647704
89	0x3f2a1e37	0.66452354
90	0x3f18e36e	0.5972203
91	0x3efe4095	0.49658647
92	0x3f2d7d39	0.677692
93	0x3f18b44f	0.5965013
94	0x3e54287a	0.20718566
95	0x3f16023b	0.58597153
96	0x3eb1d273	0.34730873
97	0x3e8b5877	0.2721593
98	0x3f31df92	0.69481766
99	0x3f1a0294	0.60160184
100	0x3f2f9b98	0.6859679
101	0x3e90515f	0.2818708
102	0x3f3d1226	0.7385582
103	0x3f644868	0.89172983
104	0x3f08f52a	0.5349909
105	0x3f183bf0	0.5946646
106	0x3e0a0de9	0.13481869
107	0x3f40d0bf	0.7531852
108	0x3f18db89	0.59709984
109	0x3f45015e	0.7695521
110	0x3f2ec615	0.68271
111	0x3ebbb5bc	0.3666209
112	0x3efa8c80	0.48935318
113	0x3f659b4b	0.89690083
114	0x3f4fc146	0.81154287
115	0x3e855334	0.2604004
116	0x3f5aa63d	0.8540991
117	0x3f7010bf	0.9377555
118	0x3f1e602b	0.6186549
119	0x3e545717	0.20736347
120	0x3f26038b	0.64849156
121	0x3ea0bad8	0.3139255
122	0x3f45fe55	0.77341205
123	0x3e5e8b7c	0.21732897
124	0x3f2406c6	0.64072835
125	0x3eee32c0	0.46523094
126	0x3f112fd8	0.5671363
127	0x3f4722ed	0.7778767

bn1.bias f4 [128]
0	0xbdd56739	-0.10420079
1	0xbe51a783	-0.20474057
2	0x3e0a7e69	0.13524784
3	0x3d882d5e	0.06649278
4	0x3d7ca1ef	0.06167787
5	0x3d744684	0.05963756
6	0x3e6b85e3	0.23000292
7	0xba23df77	-0.00062512554
8	0xbde14bd3	-0.110007904
9	0x3e91c873	0.28473243
10	0x3dd5c5b3	0.10438099
11	0x3d0567eb	0.032569807
12	0x3d00d96d	0.031457353
13	0x3ca8912b	0.020577034
14	0x3b240daa	0.0025032558
15	0x3bcc5a0e	0.0062363213
16	0x3bf3e621	0.007443205
17	0x3e5e51d1	0.21710898
18	0xbd57cfbc	-0.052688345
19	0xbdef7514	-0.11692253
20	0x3d8945c6	0.06702761
21	0xbed0a4c0	-0.40750694
22	0x3de5f8e4	0.11229113
23	0xbd7323cb	-0.059360307
24	0x3b246155	0.0025082428
25	0x3da5abae	0.08089386
26	0x3b0cd362	0.0021488299
27	0xbc6941c9	-0.014236876
28	0x3dea0a16	0.11427705
29	0xbcda8ea9	-0.026679354
30	0xbd7a2051	-0.061065976
31	0xbd8c8c42	-0.068626896
32	0xbc448b5c	-0.0119961165
33	0xbd122895	-0.035683233
34	0xbd08d8c7	-0.03340986
35	0xbde7d948	-0.1132074
36	0xbcbcce77	-0.023047669
37	0x3ce2051d	0.027590329
38	0x3cb2cd2a	0.021826345
39	0x3dfda640	0.12385225
40	0xbdd5709d	-0.1042187
41	0x3db1a4f5	0.08674041
42	0xbc8cb9e5	-0.017178485
43	0x3dae9dca	0.085261896
44	0x3c9ea23a	0.019364465
45	0xbecd5940	-0.40107155
46	0x3e289b54	0.16465503
47	0xbccf6c59	-0.025320219
48	0x3dc8b5a7	0.098002724
49	0xbd259a17	-0.040430155
50	0x3dd51fd4	0.10406461
51	0x3df199f9	0.11796946
52	0xbd563682	-0.052298076
53	0xbe00c81a	-0.12576333
54	0x3dc21ac7	0.094777636
55	0x3e2b0c7e	0.16703984
56	0x3d1f2894	0.038857058
57	0x3c3cbbf0	0.011519417
58	0xbe0d0b8d	-0.13773938
59	0x3e126aca	0.1429855
60	0x3e75ebcc	0.2401573
61	0xbd19261f	-0.03738987
62	0x3dc469b3	0.09590473
63	0x3e0d11bd	0.13776298
64	0x3d596d7f	0.05308294
65	0xbdba4a07	-0.09096151
66	0x3e041e0a	0.12902084
67	0x3e7f40f4	0.24927121
68	0x3e3798d1	0.17929389
69	0xbc6352be	-0.013874708
70	0x3e000326	0.12501201
71	0xba00cfdb	-0.00049137854
72	0xbdbbec05	-0.091758765
73	0xbdb6e0b3	-0.08929577
74	0x3cf3e3e1	0.029771747
75	0x3e46c5c0	0.19411373
76	0x3e545a61	0.20737602
77	0x3d78d418	0.060749143
78	0x3c88a6b2	0.016681049
79	0xbdb3bd04	-0.08776286
80	0x3e2c6cc3	0.16838364
81	0x3e80d676	0.2516362
82	0x3db0a294	0.08624759
83	0x3e2dacb5	0.16960414
84	0xbc5aae10	-0.013347164
85	0xbe098219	-0.13428535
86	0x3db15cea	0.086603
87	0x3de1466f	0.10999762
88	0xbd3dc3e3	-0.04632939
89	0x3df4fea4	0.11962631
90	0x3dc4edb1	0.096156485
91	0x3d9ca455	0.07648531
92	0xbe23f4d0	-0.16011357
93	0x3d6f51a1	0.058427457
94	0x3e4bcf04	0.19903189
95	0xbdfd3295	-0.123631634
96	0xbe3c65d3	-0.18398218
97	0xbcbcdb16	-0.023053687
98	0x3d5c2b3c	0.05375217
99	0x3e1ceb37	0.15324102
100	0x3df43330	0.11923826
101	0xbc091288	-0.008366235
102	0x3e3c384d	0.18380852
103	0x3e15f4f0	0.14644217
104	0x3dec79ed	0.11546693
105	0xbdab5a09	-0.08366782
106	0x3e6f060d	0.23342152
107	0x3d8a7951	0.067614205
108	0x3de7337b	0.11289116
109	0x3e0e1a11	0.13877131
110	0x3da6b6e5	0.08140353
111	0x3e30ab22	0.17252782
112	0x3de8cbfd	0.11367033
113	0x3d2d2eb2	0.04228086
114	0x3e518a66	0.20462951
115	0xbe122b15	-0.14274247
116	0xbd23d160	-0.039994597
117	0x3e35e4dc	0.17763084
118	0xbd9d818c	-0.07690725
119	0xbe008625	-0.12551172
120	0xbd17abd6	-0.03702911
121	0x3db60be5	0.088889875
122	0x3d4cea53	0.050028156
123	0x3e31f516	0.17378649
124	0x3d700013	0.05859382
125	0x3d4d5c0f	0.050136622
126	0x3dc29475	0.09500972
127	0xbcedacc2	-0.029013041

bn1.running_mean f4 [128]
0	0x3dbcf03c	0.092255086
1	0x3e5d8c2e	0.21635506
2	0x3ed2d5fc	0.41178882
3	0x3ec214a7	0.3790638
4	0x3b5eb126	0.00339801
5	0x3e8c5a41	0.27412608
6	0x3ca29bc2	0.019849662
7	0x3eac3567	0.33634493
8	0x3e6d69aa	0.23184839
9	0x3ea86d03	0.3289567
10	0x3e8eb036	0.27868813
11	0x3e8d8574	0.2764088
12	0x3c87cfea	0.016578633
13	0x3d021ffa	0.031768776
14	0x3eca6f00	0.3953781
15	0x3e79decf	0.24401401
16	0x3e3fc6c2	0.18728164
17	0x3ec69ede	0.3879308
18	0x3ebaa99b	0.36457524
19	0x3ef48d3f	0.47764012
20	0x3dd3299e	0.10310672
21	0x3e6a2b77	0.22868143
22	0x3e7b3500	0.24531937
23	0x3dcde7c5	0.10053972
24	0x3ed4ec65	0.41586605
25	0x3ef775c0	0.48332024
26	0x3e8b0de7	0.27159044
27	0x3f50ca96	0.8155912
28	0x3d9940a0	0.07483029
29	0x3e86e260	0.26344585
30	0x3eef5635	0.46745458
31	0x3e835097	0.25647423
32	0x3e6f041b	0.2334141
33	0x3d9ce15e	0.07660173
34	0x3d8f9713	0.07011237
35	0x3d16e164	0.036836043
36	0x3e8708d3	0.2637392
37	0x3cffe668	0.031237796
38	0x3e95f434	0.29287875
39	0x3dd64425	0.10462216
40	0x3dd4ccd5	0.10390631
41	0x3e4e05c5	0.20119388
42	0x3e8975ba	0.2684763
43	0x3c64ce74	0.013965238
44	0x3dd05476	0.1017236
45	0x3e8d35c8	0.27580094
46	0x3e27ff6e	0.16406032
47	0x3e2c45cb	0.16823499
48	0x3de01de3	0.109432004
49	0x3eb0f803	0.34564218
50	0x3d7ea4f9	0.06216905
51	0x3eb04836	0.34430093
52	0x3e30e7b0	0.17275882
53	0x3d8769a1	0.06611944
54	0x3e40b218	0.18817937
55	0x3df616f8	0.120161
56	0x3e0b9d34	0.13634187
57	0x3e782a44	0.24234873
58	0x3ea0166e	0.31267112
59	0x3d3cc199	0.046083067
60	0x3e5acef2	0.21368006
61	0x3d06e966	0.03293743
62	0x3e9ba65c	0.3040036
63	0x3eb5a793	0.3547941
64	0x3e132915	0.1437114
65	0x3e9b1786	0.30291384
66	0x3f0e06f0	0.55479336
67	0x3b959158	0.0045644455
68	0x3ecfc4bb	0.4057978
69	0x3e7217a4	0.2364183
70	0x3ea2f3a0	0.31826496
71	0x3cf3a7cb	0.029743096
72	0x3e8f56dc	0.27995956
73	0x3e3a7445	0.18208416
74	0x3e887ac6	0.2665617
75	0x3ef9da96	0.4879958
76	0x3e891bfd	0.26779166
77	0x3e5c8395	0.2153457
78	0x3e255565	0.16145857
79	0x3e61bf0e	0.22045538
80	0x3e931360	0.2872572
81	0x3cc1c908	0.02365543
82	0x3f189526	0.5960258
83	0x3e8729da	0.26399118
84	0x3e295c79	0.16539182
85	0x3ecf568b	0.40495715
86	0x3ec86923	0.39142713
87	0x3f04dfab	0.5190379
88	0x3c861f1c	0.016372256
89	0x3d1a91b8	0.037736624
90	0x3e45b40d	0.19306965
91	0x3ed1ece6	0.41001052
92	0x3e90e35f	0.2829847
93	0x3e85676a	0.2605546
94	0x3e60a065	0.21936186
95	0x3e0b2a90	0.13590455
96	0x3e61e8cc	0.22061461
97	0x3d7dfc01	0.062007908
98	0x3dc133dc	0.094337195
99	0x3ea83d32	0.32859188
100	0x3e987cee	0.29782814
101	0x3d89d316	0.067297146
102	0x3f14ac10	0.58075047
103	0x3e280e0c	0.16411608
104	0x3e14aac6	0.1451827
105	0x3e15f5af	0.14644502
106	0x3e7dbc7e	0.24778935
107	0x3eaec2c3	0.34132966
108	0x3ef2498a	0.4732173
109	0x3ebc9264	0.36830437
110	0x3f29bc14	0.6630261
111	0x3e168fff	0.14703368
112	0x3e1fe08b	0.15613
113	0x3ed0ab0d	0.407555
114	0x3eb34eda	0.35021096
115	0x3d3d628a	0.046236552
116	0x3f294112	0.66114914
117	0x3f027355	0.5095723
118	0x3e35dcfc	0.1776008
119	0x3d3312c9	0.043719087
120	0x3ddc077b	0.10743614
121	0x3d2aabb9	0.041667674
122	0x3e2e1bea	0.17002836
123	0x3e8b2a69	0.27180794
124	0x3e1b58d3	0.15170603
125	0x3d69523a	0.056963183
126	0x3e908e17	0.28233406
127	0x3d7f0125	0.06225695

bn1.running_var f4 [128]
0	0x3ce93f24	0.02847249
1	0x3d2052b7	0.039141383
2	0x3e3f10db	0.18658774
3	0x3e2e1e4b	0.17003743
4	0x3af8838f	0.0018960106
5	0x3d9eea12	0.07759489
6	0x3bfa122b	0.0076315603
7	0x3df47c09	0.1193772
8	0x3d941b01	0.07231713
9	0x3e7d1adc	0.24717277
10	0x3e031ce1	0.12803985
11	0x3d8e4c6a	0.069481686
12	0x3ba5ea23	0.0050633117
13	0x3bcd77e4	0.0062703956
14	0x3e7009ce	0.2344124
15	0x3d7ffb0b	0.062495273
16	0x3d8cde18	0.068782985
17	0x3e49a0b7	0.19690214
18	0x3e6ccafa	0.23124304
19	0x3e87092a	0.2637418
20	0x3d216154	0.03939946
21	0x3dbcb5a6	0.09214334
22	0x3db1ea56	0.08687274
23	0x3d097d6d	0.03356688
24	0x3e91e43e	0.28494447
25	0x3de20417	0.11035936
26	0x3dfd41a4	0.123660356
27	0x3e52969f	0.2056527
28	0x3c864d20	0.016394198
29	0x3d36dc18	0.04464349
30	0x3ce85071	0.02835867
31	0x3d47140a	0.048603095
32	0x3db4ae21	0.08822275
33	0x3d0dbe32	0.034605213
34	0x3ca037c9	0.01955785
35	0x3c61265a	0.013742054
36	0x3df6699e	0.12031864
37	0x3bbc14d2	0.0057397867
38	0x3dfc48de	0.12318586
39	0x3d45e4a8	0.048313767
40	0x3d2cf3b5	0.042224605
41	0x3daddff9	0.08489985
42	0x3d1f3bdd	0.03887545
43	0x3b6e1557	0.0036328638
44	0x3d3c0293	0.045900892
45	0x3e1dc2b0	0.15406299
46	0x3d8dd443	0.06925251
47	0x3d6abe93	0.057310652
48	0x3cbfbc74	0.023405291
49	0x3e03d5b1	0.12874486
50	0x3cf3193f	0.029675124
51	0x3e1d4cf9	0.15361394
52	0x3d373d0e	0.04473596
53	0x3c421cb8	0.011847667
54	0x3d8f6f44	0.07003644
55	0x3d248ee4	0.040175334
56	0x3d29853d	0.04138683
57	0x3d9b2552	0.07575478
58	0x3e3974b3	0.18110923
59	0x3c039a47	0.008032388
60	0x3da72114	0.08160606
61	0x3bd8b8a9	0.00661381
62	0x3e14ceef	0.14532064
63	0x3e869b03	0.2629014
64	0x3d25d61c	0.040487394
65	0x3df50a52	0.11964859
66	0x3d7ab761	0.06121004
67	0x3b21bc09	0.0024678728
68	0x3e3d1887	0.18466388
69	0x3d7daba5	0.06193127
70	0x3dec2ab3	0.11531582
71	0x3b962fea	0.0045833485
72	0x3e0ac3f7	0.13551317
73	0x3cdfd54b	0.027323386
74	0x3d389e54	0.04507287
75	0x3e3956b0	0.18099475
76	0x3dea840e	0.11450969
77	0x3dcd12dc	0.10013363
78	0x3d2af09d	0.041733373
79	0x3da86211	0.0822183
80	0x3e0b3e35	0.13597949
81	0x3bae4936	0.005318786
82	0x3e56a2a2	0.20960477
83	0x3dcf1701	0.101118095
84	0x3d63fa6d	0.055658747
85	0x3e6ea348	0.23304474
86	0x3d61c521	0.055119637
87	0x3e473233	0.19452743
88	0x3ba6d686	0.005091491
89	0x3bfe1440	0.007753879
90	0x3d0f30db	0.0349587
91	0x3e628948	0.22122681
92	0x3d5af8e1	0.053460006
93	0x3dba8e73	0.09109201
94	0x3db80fec	0.08987412
95	0x3d0a4dad	0.033765484
96	0x3d8a6f47	0.06759506
97	0x3c948430	0.018129438
98	0x3c5d7539	0.013516718
99	0x3e207aac	0.15671796
100	0x3c4385ff	0.011933803
101	0x3ccc9e99	0.024977969
102	0x3d6ed777	0.058310952
103	0x3d97eb06	0.07417874
104	0x3d4b9f8f	0.049712714
105	0x3d73bda7	0.05950704
106	0x3dff494c	0.12465152
107	0x3dec1a9d	0.115285136
108	0x3ec7de8a	0.3903697
109	0x3d362ba4	0.044475213
110	0x3e037608	0.12837994
111	0x3d6c3a61	0.057672862
112	0x3d68a75a	0.056800224
113	0x3e4b234b	0.19837682
114	0x3e1bbcca	0.15208736
115	0x3c6eb709	0.014570006
116	0x3dbf4702	0.093397155
117	0x3e1dec7c	0.15422243
118	0x3d469ce4	0.048489466
119	0x3c33755c	0.010953274
120	0x3d263a80	0.040583134
121	0x3c8d58aa	0.017254192
122	0x3d805ef0	0.06268108
123	0x3dd4e837	0.10395854
124	0x3d4a6f4b	0.049422543
125	0x3c811e77	0.015761597
126	0x3e15f89a	0.14645615
127	0x3c86c060	0.016449153

fc2.weight f4 [128, 128]
0	0xbd666472	-0.056248136
1	0xbda56388	-0.08075625
2	0xbcd7a3d2	-0.026323233
3	0x3c9d1eba	0.01917969
4	0xbd6ab889	-0.057304893
5	0xbc49eb2c	-0.012324136
6	0x3ce9189d	0.02845412
7	0x3bcedab0	0.0063126907
8	0x3c213474	0.009839166
9	0x3d300ae1	0.042979125
10	0xbaf15157	-0.0018411082
11	0xbd03ba43	-0.032160055
12	0x3d3af6da	0.045645572
13	0xbc14ba52	-0.009077625
14	0xbdb0ae8d	-0.08627043
15	0xbd8c4ff3	-0.068511866
16	0x3afbbda7	0.0019206301
17	0x3d782941	0.060586218
18	0x3d3a8e80	0.045546055
19	0xbc62ddfa	-0.013846869
20	0xbe1ebb9c	-0.15501255
21	0x3cebe582	0.028795961
22	0xbce040d5	-0.027374664
23	0xbb5eb506	-0.003398241
24	0xbd3d75af	-0.04625481
25	0xbcd8b457	-0.02645318
26	0x3cacb99c	0.0210846
27	0x3dd7cc94	0.10537067
28	0xbc5ff019	-0.013668084
29	0xbcc1e7d1	-0.023670109
30	0x3d610213	0.05493362
31	0x3e1e1b90	0.15440202
32	0xbce55afa	-0.027997483
33	0xba38d53e	-0.00070508185
34	0xbdbfacb9	-0.09359116
35	0xbdc0ab8a	-0.094077185
36	0x3cd0463f	0.025424121
37	0xbdf5e4d7	-0.12006538
38	0x3cfc5674	0.030802943
39	0xbd646ed3	-0.055769753
40	0x3cf21e84	0.029555567
41	0xbcf37635	-0.029719451
42	0xbd4d79bc	-0.050164923
43	0xbe25d987	-0.16196261
44	0xbbd99b35	-0.0066408166
45	0x3dd6b76d	0.104842044
46	0x3c0633f0	0.008191094
47	0xbdc75a65	-0.09734038
48	0x3cea7a54	0.028622784
49	0x3d937da8	0.072017014
50	0xbcccc109	-0.02499439
51	0xbd43a805	-0.047767658
52	0x3ccf561c	0.025309615
53	0x3d1782da	0.036990024
54	0xbe002aad	-0.1251628
55	0x3d942168	0.07232934
56	0xbde54c79	-0.111962266
57	0x3dc74fe2	0.09732033
58	0xbd0568b3	-0.032570552
59	0xbcb36f07	-0.021903528
60	0x3dbb0a38	0.091328084
61	0xba470037	-0.00075912796
62	0xbd31a07b	-0.043365937
63	0x3cd96f00	0.026542187
64	0xbd18c4e8	-0.03729716
65	0xbd6f2cfd	-0.058392514
66	0xbdd90d17	-0.105982
67	0xbcb6ef0e	-0.022330787
68	0xbda64aae	-0.08119713
69	0x3cef35bc	0.029200427
70	0xbdd111e2	-0.10208489
71	0x3daf5f24	0.085630685
72	0xbda53188	-0.08066088
73	0xbdd09d6b	-0.10186275
74	0x3dfb8281	0.12280751
75	0xbd7e9f96	-0.06216391
76	0x3d1315b4	0.03590937
77	0xbbc91121	-0.006136075
78	0x3cbe847f	0.023256538
79	0x3d2914ad	0.041279484
80	0xbd52c1db	-0.051454406
81	0xbd84d55c	-0.064860076
82	0xbd1580c5	-0.036499757
83	0xbdb1298c	-0.086505026
84	0xbd641aa4	-0.05568947
85	0xbc5652d9	-0.013081276
86	0xbd0eca51	-0.034860913
87	0xbc4197a2	-0.011815937
88	0xbdef873f	-0.11695718
89	0xbd05c55e	-0.032658927
90	0xbdbc4c80	-0.09194279
91	0xbdfa8a4e	-0.12233411
92	0xbc985042	-0.018592957
93	0xbd90851b	-0.07056638
94	0xbd778de6	-0.06043806
95	0x3cf94980	0.030430555
96	0xbd7e33ef	-0.062061246
97	0xbd3147cd	-0.043281365
98	0x3c03bee8	0.008041121
99	0xbd135f88	-0.035979778
100	0xbda79da8	-0.081843674
101	0x3c97ece9	0.018545585
102	0x3dd4a724	0.10383442
103	0x3d73d51f	0.05952942
104	0xbddd75f8	-0.108135164
105	0x3bd85e33	0.0066030263
106	0x3db5d050	0.08877623
107	0xbc73f879	-0.0148907835
108	0xbb76916c	-0.00376233
109	0x3d532e3b	0.05155776
110	0xbd1ee3cc	-0.038791463
111	0xbd9a0048	-0.07519585
112	0x3ccbabd7	0.024862213
113	0x3c972215	0.018448869
114	0xbb411396	-0.0029461137
115	0x3df9310f	0.1216756
116	0xbcb841ad	-0.022492254
117	0xbcf26abf	-0.029591916
118	0xbddf2a64	-0.10896757
119	0xbbb0a207	-0.005390409
120	0xbd74856f	-0.059697565
121	0x3d9e7679	0.077374406
122	0x3b477775	0.0030436192
123	0xbd31d985	-0.043420333
124	0xbe07ec5f	-0.13273762
125	0x3d9f8080	0.07788181
126	0xbb7c47d0	-0.0038494952
127	0xbdda7ac2	-0.106679454
128	0x3df7ffca	0.12109335
129	0x3dc8a8bd	0.09797809
130	0x3d1d307d	0.03837632
131	0x3cf0b116	0.029381316
132	0xbdf74c52	-0.12075104
133	0xbc26adfe	-0.010173319
134	0xbe3f78fb	-0.18698494
135	0x3dd7c08d	0.10534773
136	0xbd4df317	-0.050280657
137	0x3ce79f3b	0.02827417
138	0x3d2299c8	0.03969744
139	0x3dc06faa	0.09396298
140	0x3c607add	0.013701168
141	0xbdf97466	-0.12180404
142	0xbd792644	-0.06082751
143	0x3c414aaf	0.011797591
144	0xbd79a44c	-0.0609477
145	0xbd8b0c70	-0.06789482
146	0x3c85cf53	0.016334211
147	0x3d2fef7d	0.042953003
148	0x3daf9794	0.08573833
149	0xbc92ae65	-0.017905423
150	0xbd8329ad	-0.064044334
151	0x3d6ddcbd	0.05807184
152	0xbcf633d1	-0.030054005
153	0x3b2bee85	0.0026234698
154	0xbcc119fc	-0.02357196
155	0x3c5c138e	0.013432397
156	0x3d1523f9	0.03641126
157	0x3b6438b0	0.0034823827
158	0x3dee3ab0	0.116322875
159	0x3dab1cf6	0.08355133
160	0x3d1724c5	0.0369003
161	0x3c495b86	0.012289887
162	0xbce69552	-0.028147373
163	0x3d0e4e25	0.034742493
164	0xbc4bd233	-0.012440252
165	0xbdd16175	-0.102236666
166	0x3cd15929	0.02555521
167	0x39801d71	0.00024435998
168	0xbcc33f8f	-0.023834018
169	0xbca1f6aa	-0.019770939
170	0xbcede5d3	-0.029040253
171	0x3bc53917	0.0060187685
172	0x3db048ba	0.086076215
173	0x3ce6f88b	0.028194686
174	0xbd20ce0f	-0.039259013
175	0xbd900459	-0.07032079
176	0x3c8aec2d	0.01695832
177	0xbda1d86b	-0.079026066
178	0xbbbdd11c	-0.00579275
179	0xbce65b4f	-0.028119711
180	0x3db96787	0.090529494
181	0x3cef1bda	0.029188085
182	0xbd946ef6	-0.072477266
183	0xbd0653f0	-0.032794893
184	0xbd3809f9	-0.044931386
185	0xbd32ba0c	-0.04363446
186	0x3bc2d063	0.005945252
187	0xbd6b0c14	-0.057384565
188	0xbdb00bea	-0.085960224
189	0xbdbe6d4a	-0.09298189
190	0xbe250838	-0.16116416
191	0xbad137b9	-0.0015962041
192	0xbd43e592	-0.047826357
193	0x3d61ab45	0.055094976
194	0xbe152b83	-0.1456738
195	0xbe311467	-0.17292939
196	0xbd591993	-0.053002905
197	0xbd819104	-0.06326488
198	0xbd4fabee	-0.050701074
199	0xbdbd0825	-0.09230069
200	0xbd00a81e	-0.03141033
201	0xbd622f11	-0.055220667
202	0xbe02e2ee	-0.1278188
203	0xbda03239	-0.07822079
204	0xbda6d952	-0.08146919
205	0xbcc36356	-0.023851078
206	0xbd0d780b	-0.03453831
207	0x3cc26171	0.023728104
208	0x3d43d7e2	0.047813304
209	0xbe01262c	-0.12612218
210	0xbd2ca97a	-0.042153813
211	0x3ceff38d	0.029290939
212	0xbbedbdd3	-0.007255295
213	0xbc99ef64	-0.018790908
214	0xbe2a5086	-0.1663228
215	0xbc04ddd4	-0.008109529
216	0x3b751282	0.0037395065
217	0xbb9c4601	-0.0047690873
218	0xbda17dfa	-0.07885356
219	0xbdb2dfaa	-0.08734067
220	0x3cbcea2e	0.023060884
221	0xbd9867a4	-0.07441643
222	0xbd990997	-0.07472532
223	0x3b458cf7	0.0030143836
224	0x3e192a71	0.14957596
225	0x3ddf81f9	0.10913462
226	0x3c6b2ade	0.014353482
227	0xbd8d9c77	-0.06914609
228	0xbdce4c95	-0.100732006
229	0x3d915553	0.070963524
230	0xbd0b43d6	-0.03400024
231	0xbd07f014	-0.03318794
232	0xbd1dd907	-0.03853705
233	0xbccac827	-0.024753643
234	0xbd80d850	-0.06291258
235	0x3c494f8a	0.01228703
236	0xbda1044c	-0.07862148
237	0x3ccbb934	0.024868585
238	0x3b25f0a0	0.0025320426
239	0xbd3581f1	-0.044313375
240	0xbd08cddb	-0.033399444
241	0x3cc5810e	0.02410939
242	0xbcc46092	-0.02397183
243	0x3d17bc73	0.037044954
244	0xbd35e948	-0.044411927
245	0xbb9c61e1	-0.0047724103
246	0x3bd92844	0.0066271145
247	0x3dd7b799	0.10533065
248	0xbd8aaca7	-0.06771212
249	0xbdc319a2	-0.095263734
250	0xbc362d3c	-0.011119183
251	0xbdc0bdc4	-0.09411195
252	0xbd1f730d	-0.03892808
253	0xbd2d163f	-0.042257544
254	0x3cebf5b4	0.028803684
255	0x3b782ffe	0.0037870402

fc2.bias f4 [128]
0	0xbcaebf2c	-0.021331392
1	0xbe15780e	-0.14596578
2	0xbe15c191	-0.14624621
3	0xbcfef545	-0.031122813
4	0x3d148009	0.036254916
5	0xbd616aec	-0.05503361
6	0xbd929cc1	-0.07158805
7	0xbb5a3b43	-0.0033299483
8	0xbe2d1121	-0.16901065
9	0xbc89db56	-0.01682822
10	0x3d3d4ae9	0.046214018
11	0xbadc84d3	-0.0016824253
12	0x39c6249f	0.00037792788
13	0x3d8a2fbe	0.06747387
14	0xbcc172fc	-0.0236144
15	0x3e499a10	0.19687676
16	0x3c1f41c8	0.009720273
17	0xbdc01f24	-0.093809396
18	0xbd81d42a	-0.06339295
19	0xbd4c7fe4	-0.049926654
20	0xbd971335	-0.0737671
21	0xbd8378b3	-0.06419506
22	0x3cee1f41	0.029067637
23	0xbc8f3fa5	-0.017486403
24	0xbdc2731b	-0.09494611
25	0xbde46442	-0.11151935
26	0xbd83f882	-0.064438835
27	0xbcee5e73	-0.029097771
28	0x3daa0b5b	0.08302947
29	0x3d1ba034	0.03799458
30	0xbdf8ef37	-0.121550016
31	0xbd8f088a	-0.069840506
32	0xbde17090	-0.11007798
33	0x3c3492a9	0.011021295
34	0x3cc34007	0.023834242
35	0x3dae7b95	0.08519665
36	0xbdb45c75	-0.08806697
37	0xbde1549e	-0.110024676
38	0x3ce36b5a	0.02776115
39	0xbd88aeb4	-0.06673947
40	0xbd310352	-0.043216057
41	0xbe3a8350	-0.18214154
42	0xbd609670	-0.05483097
43	0x3df8689a	0.12129326
44	0x3e02fdf0	0.12792182
45	0x3d3d30ac	0.046188995
46	0x3e4942e9	0.1965443
47	0x3d13ba21	0.03606618
48	0xbdbf5d37	-0.09343951
49	0xbd3e7c83	-0.046505462
50	0xbd385ad3	-0.04500849
51	0xbcd028e8	-0.02541013
52	0xbc4bdb0b	-0.012442361
53	0xbdec4a17	-0.11537569
54	0xbda2c902	-0.079484954
55	0xbd015435	-0.031574447
56	0xbd917ab6	-0.071034834
57	0x3c8ed07f	0.017433403
58	0x3b65cd6e	0.0035065073
59	0xbd4be729	-0.049781
60	0xbdaf7210	-0.085666776
61	0xbd333d90	-0.043759882
62	0xbbdbdf37	-0.006709959
63	0xbda7275b	-0.08161803
64	0xbd5906bf	-0.05298495
65	0xbbe62638	-0.007023599
66	0xbdd8a470	-0.10578239
67	0xbe26d98f	-0.1629393
68	0x3d4192ab	0.047259014
69	0x3d6bebd5	0.057597954
70	0xbb5260c9	-0.0032101145
71	0x3dab8fed	0.08377061
72	0x3e855ea8	0.2604878
73	0xbd1a22b7	-0.037630763
74	0xbd0fc01e	-0.035095327
75	0xbdb2272b	-0.08698877
76	0x3d038746	0.03211143
77	0xbe1e23fd	-0.15443416
78	0x3cd9757c	0.026545279
79	0xbdab6959	-0.08369703
80	0x3e24bade	0.16086909
81	0xba060ee4	-0.0005113913
82	0x3c0d2ec7	0.00861711
83	0x3cb53c5b	0.022123506
84	0x3a2092ad	0.0006125372
85	0xbac26e6e	-0.0014833936
86	0xbdb2ed0e	-0.08736621
87	0xbde6b8b1	-0.11265696
88	0xbd5f81c2	-0.054567106
89	0xbe1fd4c9	-0.15608515
90	0xbddca2ef	-0.107732646
91	0xbd5f06d8	-0.054449886
92	0x3c9a93cd	0.018869305
93	0xbdd3894e	-0.10328923
94	0x3c88b4ba	0.01668774
95	0xbd183926	-0.037163876
96	0xbe22d6e8	-0.15902293
97	0x3da9b4d2	0.08286442
98	0xbb0c8229	-0.0021439886
99	0x3b15d438	0.0022862088
100	0x3d84f6fc	0.06492421
101	0xbdb5f3da	-0.088844016
102	0xbbfac300	-0.0076526403
103	0xbdd54c39	-0.10414929
104	0xbd33dc83	-0.04391147
105	0xbd5e75e5	-0.05431165
106	0x3cd20eda	0.025641847
107	0xbcfda2e9	-0.03096147
108	0x3c000aee	0.007815106
109	0x3d0000a0	0.031250596
110	0xb90b8f1b	-0.00013309384
111	0xbe0b9e4f	-0.13634609
112	0xbd494ffe	-0.049148552
113	0x3ded1e69	0.11578066
114	0xbe28eea7	-0.16497289
115	0x3d966853	0.07344117
116	0xbcb7d1d7	-0.022438927
117	0xbd814d13	-0.06313529
118	0xbda46ab8	-0.080281675
119	0xbca365dc	-0.019946031
120	0xbe0c2103	-0.13684468
121	0xbdf58d48	-0.11989838
122	0xbc5c898d	-0.013460529
123	0xbd606367	-0.054782297
124	0xbdbbbb03	-0.09166529
125	0x3d500596	0.050786577
126	0x3db3a87b	0.087723695
127	0x3c786c94	0.015162606

bn2.weight f4 [128]
0	0x3f067d4a	0.52534926
1	0x3f624ac5	0.8839534
2	0x3f13d487	0.57746166
3	0x3f0f3223	0.5593588
4	0x3f6c0bb6	0.9220537
5	0x3f8bf271	1.0933362
6	0x3f722dba	0.94601023
7	0x3f21e0a8	0.63233423
8	0x3ef4d568	0.47819066
9	0x3fabf977	1.3435506
10	0x3f7058f9	0.9388576
11	0x3f4f2236	0.80911577
12	0x3f99f7e8	1.202878
13	0x3f197533	0.59944457
14	0x3f571ca3	0.8402807
15	0x3f8aef4f	1.0854281
16	0x3f0bbc24	0.54583955
17	0x3fa0c2b7	1.2559422
18	0x3f8b6e26	1.089299
19	0x3f445d52	0.76704895
20	0x3f3a7569	0.72835404
21	0x3f586ac2	0.845379
22	0x3f970e66	1.1801269
23	0x3f38a379	0.7212444
24	0x3f10a120	0.5649586
25	0x3f68ff39	0.9101444
26	0x3f8778bf	1.0583724
27	0x3f348f71	0.70531374
28	0x3f9046d0	1.127161
29	0x3f707b38	0.93938017
30	0x3fa299de	1.2703207
31	0x3f5f046a	0.8711611
32	0x3f5fdc44	0.87445474
33	0x3f808f7b	1.0043787
34	0x3f975684	1.1823277
35	0x3f60d3d8	0.8782325
36	0x3fa0c851	1.2561132
37	0x3f9c8810	1.2229023
38	0x3ef6f56f	0.48234126
39	0x3f98e0c2	1.1943591
40	0x3efcafa3	0.4935275
41	0x3f6b6f28	0.91966486
42	0x3ef97232	0.48719937
43	0x3f75c612	0.96005356
44	0x3f58b49b	0.8465058
45	0x3f9fb2d4	1.2476449
46	0x3fa6579b	1.2995485
47	0x3f600de9	0.87521225
48	0x3f0dd91f	0.55409425
49	0x3f3cbee3	0.7372877
50	0x3f5c0a0d	0.85952836
51	0x3f40dcca	0.753369
52	0x3f51a386	0.8189014
53	0x3ed52e7b	0.41637024
54	0x3f8b85a5	1.090016
55	0x3f225a75	0.63419276
56	0x3f15f861	0.5858212
57	0x3f910068	1.1328249
58	0x3f9b816b	1.214887
59	0x3f893073	1.071791
60	0x3f13a0b4	0.5766709
61	0x3fa5989f	1.2937201
62	0x3f9a6be1	1.2064172
63	0x3fa05c47	1.2528161
64	0x3f2c4407	0.672913
65	0x3f0b0802	0.54309094
66	0x3f13a313	0.57670707
67	0x3fa6088b	1.2971357
68	0x3f1422b4	0.5786545
69	0x3fa1cadf	1.2640036
70	0x3f589741	0.84605795
71	0x3f7179b0	0.94326305
72	0x3f3e57b8	0.743526
73	0x3f1e5c44	0.61859536
74	0x3fa65b1d	1.2996556
75	0x3ef97cee	0.48728126
76	0x3f301bdc	0.6879251
77	0x3f978141	1.183632
78	0x3f317c29	0.6933008
79	0x3f43d306	0.7649387
80	0x3f36e836	0.71448076
81	0x3f914b6b	1.1351141
82	0x3f3071b6	0.6892351
83	0x3f6993a7	0.91240925
84	0x3f8eb352	1.1148474
85	0x3f05b99f	0.5223636
86	0x3f6435c3	0.89144534
87	0x3f80a081	1.0048982
88	0x3f2fbe18	0.68649435
89	0x3f96ad16	1.1771572
90	0x3f8e203b	1.1103586
91	0x3f7fcb36	0.9991945
92	0x3f5ea788	0.8697438
93	0x3f91583c	1.1355052
94	0x3f49b6c8	0.7879453
95	0x3f80dcb1	1.006735
96	0x3f2ef624	0.6834433
97	0x3f7b20f5	0.98097163
98	0x3f951645	1.1647421
99	0x3f9033c6	1.12658
100	0x3fb44c2f	1.4085749
101	0x3f6ae1b7	0.91750664
102	0x3f8016e9	1.0006992
103	0x3f641b57	0.8910422
104	0x3f093c97	0.5360808
105	0x3f52f628	0.82406855
106	0x3f9304c3	1.1485828
107	0x3f7b1478	0.9807811
108	0x3fa87ce2	1.3163111
109	0x3f78abb4	0.97137
110	0x3f6bf175	0.9216531
111	0x3f406a84	0.7516253
112	0x3f1b70c2	0.6071893
113	0x3f80c056	1.0058696
114	0x3f596077	0.8491282
115	0x3f3c74af	0.73615545
116	0x3f34bdfc	0.70602393
117	0x3f8eef34	1.1166749
118	0x3f235431	0.6380034
119	0x3f4bb4b1	0.7957259
120	0x3f3e2e04	0.74288964
121	0x3f15dc38	0.5853915
122	0x3f75a04c	0.9594772
123	0x3f3d03ee	0.7383412
124	0x3f4f0351	0.80864435
125	0x3f52812a	0.8222834
126	0x3f9da701	1.231659
127	0x3fa7af58	1.3100386

bn2.bias f4 [128]
0	0x3c8546ef	0.016269175
1	0x3d01295c	0.031533584
2	0x3cda5d1d	0.026655728
3	0x3d9de7e6	0.07710247
4	0x3cd5e52a	0.02611025
5	0xbc083ab3	-0.008314776
6	0x3d0cd121	0.03437913
7	0xbda03fc2	-0.07824661
8	0x3bfc46b9	0.0076988605
9	0xba9f9b11	-0.0012176951
10	0x3ae64bd1	0.0017570202
11	0xbcdeae70	-0.027182788
12	0xba8777b5	-0.0010335358
13	0x3c9d5379	0.019204842
14	0xbce3c52d	-0.027803982
15	0x3cbcd8d6	0.023052614
16	0x3d81b75f	0.063338034
17	0xbd6aa6d6	-0.057288013
18	0x3c2ee136	0.010673812
19	0x3d4bb6e3	0.04973496
20	0xbc931dec	-0.017958604
21	0xbbba63f7	-0.0056881863
22	0x3cb781ea	0.022400815
23	0xbced579e	-0.028972443
24	0x3c3ebf85	0.0116423415
25	0x3c1da690	0.009622231
26	0x3c11da25	0.008902107
27	0x3bc0ae2d	0.0058801384
28	0x3c49b6bb	0.012311633
29	0x3d35c4e0	0.044377208
30	0xbc8f63b6	-0.0175036
31	0xbd0503a2	-0.032474168
32	0x3d67c4cc	0.056584165
33	0xbc02d40b	-0.007985125
34	0x3cc6dcbc	0.024275176
35	0xbba3fcda	-0.0050045075
36	0x3d2c1aa3	0.04201759
37	0xbceeaec0	-0.029136062
38	0x3a1e94f5	0.0006049418
39	0x3d23a2f4	0.039950326
40	0x3ce0ce2c	0.02744206
41	0x3d483f71	0.048888627
42	0xbbb0afe9	-0.005392064
43	0x3cb4e723	0.02208287
44	0x3c82edf8	0.015982613
45	0x3d2907b1	0.0412671
46	0x3c89574b	0.016765257
47	0x3ce486b3	0.02789626
48	0xbbdd262c	-0.006748935
49	0xbc637106	-0.013881927
50	0xbc88b85a	-0.016689468
51	0x3b0dbb80	0.0021626651
52	0x3cb397ae	0.021922912
53	0xbd1115b1	-0.035421077
54	0x3cd526f7	0.026019556
55	0x3c8be198	0.017075345
56	0xbc0f6827	-0.008752859
57	0x3d2c050b	0.041996997
58	0x3d434d64	0.047681227
59	0xbc91ce83	-0.017798668
60	0x3cfd306c	0.030906878
61	0x3d2294bd	0.03969263
62	0xbc579a7b	-0.01315939
63	0xbda73bc6	-0.08165698
64	0x3bca4fcb	0.006174063
65	0x3cf5a5fe	0.029986378
66	0x3cb68cf7	0.022284014
67	0xbc85b4cd	-0.016321564
68	0x3c8b53b2	0.017007682
69	0x3ace8975	0.0015757518
70	0x3a0a4465	0.0005274474
71	0x3d00a207	0.03140452
72	0x3d48b4cd	0.04900055
73	0x3d2caae5	0.042155165
74	0xbc757f28	-0.01498393
75	0x3d877e88	0.06615931
76	0x3c90df9b	0.017684748
77	0xbbef9bcb	-0.007312273
78	0xbc8276e2	-0.015925828
79	0x3d22089a	0.039558984
80	0x3ba0cbf6	0.0049071265
81	0xbb84e735	-0.0040558823
82	0xbd949485	-0.0725489
83	0xbd456724	-0.048194066
84	0xbc99dba7	-0.018781496
85	0x3bb07648	0.005385194
86	0x3d14ce20	0.03632939
87	0x3ce5ee8b	0.028067848
88	0xbc73de27	-0.014884508
89	0x3bdf261a	0.006809962
90	0x3c91d6e7	0.017802669
91	0x3cb093f2	0.02155492
92	0x3d132a5a	0.03592906
93	0x3d49b1d0	0.04924184
94	0x3ca5ad6c	0.020224296
95	0xbcbfb178	-0.023400053
96	0x3ce4e52a	0.027941305
97	0xbb22f5a3	-0.002486565
98	0xbd054f44	-0.032546297
99	0x3cabf646	0.020991456
100	0x3cf1cf1d	0.029517705
101	0x3b30d632	0.002698314
102	0x3d147474	0.03624387
103	0x3c519a45	0.012793128
104	0xbc1ee2f9	-0.009697669
105	0x3d24361c	0.040090665
106	0xbcc7bfe6	-0.024383496
107	0xbcb89e89	-0.022536533
108	0x3d6cb22c	0.057787105
109	0xbc5d4679	-0.0135055715
110	0xbacd9e7c	-0.0015687491
111	0x3c4606a9	0.012086549
112	0xbcfb39a5	-0.030667135
113	0xbbf3aceb	-0.007436385
114	0x3ce377a2	0.027767006
115	0x3d96b84f	0.07359373
116	0xbca7c49b	-0.020479491
117	0xbc9ef600	-0.019404411
118	0x3a1682fb	0.00057415635
119	0x3c3590e8	0.011081912
120	0xbd34556f	-0.04402679
121	0x3c962d3f	0.018332122
122	0x3cb657c9	0.022258656
123	0x3c856089	0.016281383
124	0xba4124fa	-0.00073678757
125	0xb947a5f4	-0.00019039941
126	0xbb0f7fc9	-0.0021896234
127	0x3cad1a4e	0.021130707

bn2.running_mean f4 [128]
0	0x3d72e0d6	0.05929645
1	0x3b7f4c53	0.0038955405
2	0x3b22b73e	0.002482846
3	0x3e0663f0	0.1312406
4	0x3e615a61	0.22007133
5	0x3e089710	0.13338876
6	0x3cdd4131	0.027008625
7	0x3dbaced5	0.09121481
8	0x35631f5e	8.4609735e-07
9	0x3e14222d	0.14466162
10	0x3dfca441	0.123360164
11	0x3dcd4971	0.100237735
12	0x3d95c8a0	0.07313657
13	0x3e6dff00	0.23241806
14	0x3d7075e1	0.058706168
15	0x3ec23c63	0.37936696
16	0x3e69594c	0.2278797
17	0x3b4da43d	0.0031378411
18	0x3c754ca8	0.01497189
19	0x3e41544e	0.18879816
20	0x3c12a4aa	0.008950392
21	0x3b40ba75	0.0029408012
22	0x3eb99dd4	0.36253226
23	0x3d9b5eac	0.075864166
24	0x3d01f55c	0.031728134
25	0x3726354d	9.906781e-06
26	0x3e9b9639	0.30388048
27	0x3e448c0a	0.19194046
28	0x3e40504c	0.18780631
29	0x3df747cd	0.12074242
30	0x3bf6d772	0.0075330073
31	0x3dd94ac4	0.106099635
32	0x3d87851a	0.06617184
33	0x3d50752f	0.050893005
34	0x3e9aba66	0.30220336
35	0x3e8a5ee8	0.27025533
36	0x3d86cc45	0.0658193
37	0x3e238f34	0.15972596
38	0x3c42bb50	0.011885479
39	0x3e0a98cd	0.13534851
40	0x3b872fcf	0.0041255723
41	0x3a084229	0.0005197847
42	0x3c4d8a29	0.012545147
43	0x3ec1574c	0.37761915
44	0x3eed2fc1	0.46325496
45	0x3f0d9476	0.5530466
46	0x3ede4520	0.43412113
47	0x3dbf7ed7	0.09350365
48	0x3d06a880	0.032875538
49	0x3c65829c	0.0140081905
50	0x3da003f7	0.07813256
51	0x3e2d9e34	0.16954881
52	0x3dcb9861	0.09941173
53	0x3d719b89	0.05898622
54	0x3cad77dc	0.021175317
55	0x3d1e5746	0.03865745
56	0x3de192c9	0.11014325
57	0x3e897eda	0.26854593
58	0x3e073f1e	0.13207671
59	0x3d03b903	0.032158863
60	0x3dac768b	0.08421048
61	0x3e0e1b1b	0.13877527
62	0x3dbe018d	0.092776395
63	0x3d6f7bc9	0.05846766
64	0x3d3baffa	0.04582212
65	0x3d451337	0.048114028
66	0x3d42612b	0.047455948
67	0x3d4dea19	0.05027208
68	0x3eadfdd0	0.33982706
69	0x3e426dfc	0.18987268
70	0x3eba9835	0.3644425
71	0x3ed318c0	0.4122982
72	0x3f054604	0.5205996
73	0x3e49b69b	0.19698565
74	0x3e07b8cd	0.1325409
75	0x3c09b260	0.008404344
76	0x3e0e9c5f	0.13926838
77	0x3ca2d59c	0.019877248
78	0x3de4b434	0.111671835
79	0x3d7691a6	0.060197495
80	0x3eaa1535	0.33219305
81	0x3e2b2d9e	0.1671662
82	0x3d87091e	0.06593536
83	0x3e399a60	0.18125296
84	0x3e39a3b9	0.18128861
85	0x3ea67b25	0.32515827
86	0x3dae49f2	0.08510198
87	0x3b5d4274	0.0033761533
88	0x3dc183a6	0.09448938
89	0x3cc7c7a2	0.024387185
90	0x3e6b3c75	0.22972281
91	0x3c929de4	0.017897554
92	0x3e973149	0.2952979
93	0x3df83416	0.121193096
94	0x3e8b5b0b	0.27217898
95	0x3e72419d	0.23657842
96	0x2a9bfc10	2.7708435e-13
97	0x3e84e1c4	0.25953496
98	0x3e750873	0.23929004
99	0x3e00bf3a	0.12572947
100	0x3ec554b4	0.38541186
101	0x3d7c64cc	0.061619565
102	0x3ea8dbe1	0.32980254
103	0x3d67a49f	0.05655348
104	0x3dc70a8f	0.09718811
105	0x3e425287	0.18976794
106	0x3e91090f	0.28327224
107	0x3e3460ba	0.17615023
108	0x3e9cc9e9	0.30622795
109	0x3e7d95ef	0.24764226
110	0x3ddc3fde	0.10754369
111	0x3cff5f9e	0.031173524
112	0x3e075dd2	0.13219383
113	0x3db0760b	0.08616265
114	0x3e0aa6f0	0.13540244
115	0x3f0822df	0.5317821
116	0x3d4f13bb	0.050555926
117	0x3e503de3	0.20336108
118	0x3dac68ca	0.084184244
119	0x3e5ac95e	0.21365878
120	0x3c13d5fc	0.009023186
121	0x3c53c8a9	0.012926259
122	0x3ddea0a8	0.108704865
123	0x3d95746a	0.07297595
124	0x3cd19764	0.025584884
125	0x3e3120d2	0.17297676
126	0x3e8fbcbb	0.28073677
127	0x3dd980e1	0.10620285

bn2.running_var f4 [128]
0	0x3c63fab4	0.013914753
1	0x3ae11be2	0.0017174447
2	0x3b0055a6	0.00195823
3	0x3d2e16ad	0.042502094
4	0x3d8aba7f	0.067738526
5	0x3d5190e1	0.051163558
6	0x3c9aa8c0	0.018879294
7	0x3c9768b7	0.01848255
8	0x333bc3a4	4.3717264e-08
9	0x3d030f89	0.031997237
10	0x3d073533	0.03300972
11	0x3d4414ed	0.04787152
12	0x3cbf618c	0.023361944
13	0x3dc4ab07	0.096029334
14	0x3d2cbb48	0.042170793
15	0x3e24411b	0.16040461
16	0x3dcf6651	0.10126937
17	0x3ade9339	0.0016981132
18	0x3c4f7ee1	0.012664528
19	0x3da3a8aa	0.079911545
20	0x3bcc2d7a	0.006231007
21	0x3a58276e	0.00082456216
22	0x3e27c608	0.16384137
23	0x3cc62427	0.02418716
24	0x3c0272db	0.007961954
25	0x35c96af9	1.50068e-06
26	0x3e0a19e9	0.13486446
27	0x3e0258f1	0.12729241
28	0x3d539a50	0.051660836
29	0x3d1daf49	0.038497243
30	0x3ae53f5d	0.0017490197
31	0x3d0a1403	0.03371049
32	0x3cf895bf	0.030344842
33	0x3d21c9d7	0.03949913
34	0x3e0df548	0.13863099
35	0x3e12810d	0.14307041
36	0x3ca36960	0.019947708
37	0x3d9fc19d	0.07800601
38	0x3b4e89a6	0.003151515
39	0x3d805cea	0.06267722
40	0x3accc817	0.0015623596
41	0x390b6f56	0.00013297549
42	0x3b7c3338	0.0038482677
43	0x3e5904eb	0.21193282
44	0x3e5b4d55	0.21416219
45	0x3ea594a8	0.32339978
46	0x3e4c0192	0.19922474
47	0x3d2f01f5	0.042726476
48	0x3bd3efa7	0.006467778
49	0x3c5423e6	0.012948012
50	0x3cd56c97	0.026052756
51	0x3dcedc20	0.10100579
52	0x3d582280	0.052767277
53	0x3c66490c	0.014055502
54	0x3c43b4ea	0.011944989
55	0x3c8ac230	0.016938299
56	0x3cf94b2b	0.03043135
57	0x3e215218	0.15753973
58	0x3d50a6af	0.05094021
59	0x3c2b3383	0.010449293
60	0x3caba708	0.02095367
61	0x3d88c2b9	0.066777654
62	0x3d825b23	0.06365039
63	0x3ca2de34	0.019881345
64	0x3c7a8073	0.015289414
65	0x3c8ef8b4	0.017452575
66	0x3d4fbacb	0.05071525
67	0x3cb25bfd	0.021772379
68	0x3e221916	0.15829882
69	0x3d401c07	0.04690173
70	0x3e3e1f7c	0.18566698
71	0x3e3d1e62	0.18468621
72	0x3e16f4f9	0.14741887
73	0x3dbb30e4	0.091401845
74	0x3d4e13a5	0.050311703
75	0x3b0eccda	0.0021789582
76	0x3d8e2a86	0.069417045
77	0x3c5351f7	0.01289796
78	0x3d092123	0.033478867
79	0x3cef8cb7	0.029241903
80	0x3de0d5dd	0.10978291
81	0x3d92b5aa	0.07163556
82	0x3c88d889	0.016704815
83	0x3d8e9fc1	0.069640644
84	0x3dc18adf	0.09450316
85	0x3e1e4a12	0.15457943
86	0x3ce6b8ad	0.028164232
87	0x3af881ff	0.001895964
88	0x3cd933f1	0.026514025
89	0x3c5050f8	0.012714617
90	0x3dfd76ca	0.12376173
91	0x3ba5a45a	0.0050549926
92	0x3e086d95	0.13323052
93	0x3d70144c	0.058613107
94	0x3e028217	0.12744938
95	0x3df3e38f	0.11908638
96	0x28eed605	2.6516124e-14
97	0x3da44bb0	0.08022249
98	0x3ddabef5	0.106809534
99	0x3d5f1194	0.054460123
100	0x3e796717	0.24355732
101	0x3cc56616	0.02409653
102	0x3e4ce4b9	0.20009126
103	0x3cf23e04	0.029570587
104	0x3d0a827f	0.033815857
105	0x3da9e178	0.08294958
106	0x3de8ab7d	0.11360834
107	0x3d89f4c9	0.06736142
108	0x3dd01dd0	0.10161936
109	0x3de68557	0.11255901
110	0x3ce6caa8	0.028172806
111	0x3c759898	0.0149899945
112	0x3d538d84	0.05164863
113	0x3cf70afd	0.030156607
114	0x3d87f929	0.066393204
115	0x3def5d6b	0.1168774
116	0x3c9a1c0e	0.018812206
117	0x3de8d126	0.11368017
118	0x3d0f6586	0.03500893
119	0x3dc345f0	0.09534824
120	0x3c03435c	0.008011665
121	0x3c360867	0.011110402
122	0x3d88f0c1	0.06686545
123	0x3d22f780	0.039786816
124	0x3c9ba362	0.018998805
125	0x3d5b62c0	0.053560972
126	0x3e0d3c67	0.13792573
127	0x3cf42796	0.029804032
